models/mlp_pytorch_baseline.pth (torch, 48305 bytes, 5 tensors)

fc1.weight f4 [128, 22]
0	0x3e1c385e	0.15255877
1	0x3e1df099	0.15423812
2	0x3e462bd2	0.19352654
3	0x3d37cffc	0.044876084
4	0xbe8ac29e	-0.27101606
5	0x3e43595c	0.19077057
6	0xbea3e195	-0.32008043
7	0x3dbe56b3	0.0929388
8	0x3e00d95a	0.12582913
9	0xbe1fbe11	-0.15599848
10	0x3de280bc	0.110597104
11	0x3d902238	0.07037777
12	0x3d79328d	0.060839225
13	0x3cec88f3	0.028873896
14	0x3e0b1e22	0.13585714
15	0x3c119572	0.008885728
16	0x3e73313d	0.23749252
17	0x3de7bc9a	0.1131527
18	0xbd63ce54	-0.05561669
19	0x3d90f475	0.070778765
20	0x3d33168a	0.043722667
21	0xbe3e790a	-0.1860086
22	0x3d458367	0.04822102
23	0x3d151eed	0.036406446
24	0xbe129921	-0.14316227
25	0xbf0a924f	-0.541295
26	0xbf1c7096	-0.6110929
27	0xbe470eda	-0.19439259
28	0x3c4c35fa	0.012464041
29	0xbe71c1d7	-0.236091
30	0x3ec67ac3	0.38765535
31	0xbe00760d	-0.12545033
32	0x3e26dc88	0.16295063
33	0x3c8e7635	0.01739035
34	0xbcab4d77	-0.020910962
35	0x3e06e8c9	0.13174738
36	0x3c863edf	0.016387401
37	0x3e20ea5f	0.15714405
38	0xbe429f5f	-0.19006108
39	0xbe8f5c4d	-0.28000107
40	0x3df676d9	0.12034387
41	0xbc9ac71e	-0.018893775
42	0x3d822443	0.063545726
43	0x3ccdc2f2	0.025117371
44	0x3ea2584a	0.31707984
45	0xbde0412e	-0.10949932
46	0x3e605697	0.21908031
47	0xbed44da4	-0.41465485
48	0xbebfcdfb	-0.37461838
49	0xbf253956	-0.6454061
50	0xbe888ce7	-0.2667
51	0xbd80792b	-0.06273111
52	0xbe6b5fd8	-0.2298578
53	0x3dd45353	0.10367455
54	0xbd479913	-0.048729967
55	0x3dde6d43	0.10860684
56	0x3d31a5c5	0.04337098
57	0xbb730fe9	-0.003708834
58	0x3b884303	0.004158379
59	0xbe983f68	-0.29735875
60	0x3cd098ec	0.025463544
61	0xbdd5b721	-0.1043532
62	0x3da4aab9	0.08040375
63	0xbd987cce	-0.074456796
64	0x3d075d8f	0.03304821
65	0xbd312981	-0.04325247
66	0x3f4233ad	0.758601
67	0x3cb29c80	0.02180314
68	0xbe584675	-0.21120627
69	0xbd9b6913	-0.07588401
70	0x3e846375	0.2585713
71	0x3d9548e2	0.07289292
72	0x3c810791	0.015750678
73	0x3e0056ea	0.12533155
74	0xbdecfe98	-0.115719974
75	0xbca15bf1	-0.019697161
76	0xbeaabbb8	-0.33346343
77	0x3ea31f37	0.31859753
78	0x3d47898d	0.048715163
79	0x3e3567c6	0.17715368
80	0xbf54c319	-0.83110195
81	0xbf5a9e09	-0.8539739
82	0x3e46b0e4	0.19403416
83	0x3b45f114	0.0030203508
84	0x3baed5e5	0.005335557
85	0xbe11589b	-0.14193957
86	0x3e06f656	0.13179907
87	0xbf3c95ab	-0.73665875
88	0xbf365a05	-0.7123111
89	0x3daaba71	0.08336342
90	0x3d1b5b67	0.037928965
91	0xbdbd7dcc	-0.092525095
92	0x3e3443a9	0.17603935
93	0x3c6dc9fa	0.014513487
94	0xbd96a725	-0.07356099
95	0xbe05706c	-0.13031167
96	0x3ea67c3a	0.32516652
97	0x3c81ce34	0.015845396
98	0x3d08685c	0.03330265
99	0xbc8acfdb	-0.016944816
100	0xbca50bcd	-0.020147229
101	0x3d5a2565	0.05325832
102	0x3e5aa63e	0.21352479
103	0x3d0afb09	0.033930812
104	0xbd9176ba	-0.071027234
105	0xbe8055d9	-0.25065497
106	0xbe35ec2d	-0.17765875
107	0xbd5d6eb4	-0.054060653
108	0xbd3388a1	-0.04383147
109	0xbd6a6d52	-0.057233162
110	0x3f2b713b	0.6696965
111	0x3ca8656a	0.02055617
112	0x3db613b8	0.0889048
113	0xbf4db87a	-0.80359614
114	0xbf4e274f	-0.8052873
115	0xbeba12ef	-0.3634257
116	0xbacffa89	-0.0015867512
117	0xbe75831a	-0.23975793
118	0xbdbb8e0c	-0.09157953
119	0xbe062812	-0.13101223
120	0x3e2d3974	0.16916448
121	0xbd86aa99	-0.06575508
122	0x3b6a9351	0.0035793374
123	0xbe13f03e	-0.14447114
124	0xbe9e4b43	-0.30916795
125	0xbe910dba	-0.28330785
126	0xbdfaafab	-0.12240537
127	0xbe5fa74a	-0.2184116
128	0x3e82a65e	0.25517553
129	0x3cb8d5a1	0.022562804
130	0x3e480c56	0.19535956
131	0x3da78c0a	0.08181007
132	0xbe28b9a3	-0.16477065
133	0x3e6ec131	0.23315884
134	0x3d108b23	0.03528894
135	0xbe78ce79	-0.24297513
136	0xbeb55bfc	-0.3542174
137	0xbecfc5a0	-0.40580463
138	0x3e4aa879	0.1979083
139	0x3e24481f	0.16043137
140	0x3dc28515	0.0949804
141	0xbe3769f1	-0.17911507
142	0x3d809c90	0.06279862
143	0xbdcf3a53	-0.10118546
144	0xbdcff8ce	-0.101548776
145	0x3d366651	0.04453117
146	0x3dc9820d	0.09839258
147	0x3e26cf57	0.16290031
148	0x3e516d70	0.20451903
149	0xbe21df18	-0.1580776
150	0x3d741790	0.059592783
151	0xbd9e144e	-0.077187166
152	0xbcced44d	-0.025247717
153	0xbef4dfdd	-0.47827044
154	0x3ecaff06	0.39647692
155	0xbda1ba1f	-0.07896828
156	0x3d8f6e28	0.070034325
157	0x3dc17404	0.09445956
158	0x3d871129	0.0659507
159	0xbdec66f6	-0.11543076
160	0x3e5d5c45	0.2161723
161	0x3e3405fd	0.1758041
162	0x3c804c01	0.015661241
163	0xbd9d2a3d	-0.07674072
164	0x3e2eab13	0.17057447
165	0x3e2320d9	0.15930499
166	0xbd20c58b	-0.03925089
167	0x3e3b85ea	0.18312803
168	0xbe78a1a7	-0.24280415
169	0xbecd75bb	-0.40128884
170	0xbe6ddf98	-0.23229825
171	0xbe03d9a1	-0.12875988
172	0x3d8fe835	0.07026712
173	0xbd9a315f	-0.07528948
174	0xbe1b8cec	-0.15190476
175	0xbf254145	-0.6455272
176	0xbea1848d	-0.3154644
177	0xbcc64a08	-0.024205223
178	0x3e94becc	0.29051816
179	0xbf04065e	-0.51572216
180	0xbea3ef6b	-0.320186
181	0x3ecf3a65	0.4047424
182	0x3e6848d5	0.22684033
183	0x3d4cd5c6	0.050008558
184	0x3edb8169	0.4287217
185	0x3d806361	0.06268955
186	0x3e05d3d3	0.13069086
187	0x3b8e4b94	0.0043425057
188	0xbe59dc39	-0.21275415
189	0x3cbad8b3	0.022808408
190	0x3e046e08	0.12932599
191	0x3e266b55	0.16251881
192	0x3e05b3c0	0.1305685
193	0x3e526ac6	0.20548543
194	0xbdaca6ba	-0.08430238
195	0xbde1a53a	-0.110178426
196	0x3dca2100	0.098695755
197	0xbe42eb30	-0.1903503
198	0xbf0b672b	-0.54454297
199	0x3c019877	0.007909886
200	0xbe6747e8	-0.22586024
201	0xbb048954	-0.0020223456
202	0x3ea9fae1	0.33199218
203	0x3d7c3348	0.061572343
204	0x3cb00de7	0.021491004
205	0xbdeaff9e	-0.11474536
206	0xbdf11d1a	-0.11773129
207	0xbe088ac2	-0.13334182
208	0x3df1c484	0.118050605
209	0x3e06110e	0.13092443
210	0x3e7b6f27	0.2455412
211	0x3dc997df	0.0984342
212	0x3dfbb4e5	0.12290362
213	0x3e096151	0.1341603
214	0xbcd0fe2e	-0.025511827
215	0x3e3f5188	0.18683445
216	0xbba940ad	-0.0051651807
217	0xbd61a166	-0.055085562
218	0x3c4ed7de	0.012624709
219	0x3d29ccb5	0.04145499
220	0xbe96a516	-0.29422826
221	0x3d42249c	0.047398195
222	0xbe9c3f90	-0.30517244
223	0x3dcfdfe2	0.10150124
224	0x3ba36d02	0.00498736
225	0x3d1eefe5	0.038803
226	0x3e5a06c9	0.21291651
227	0x3e0e1053	0.13873415
228	0xbb7e42ba	-0.0038797096
229	0x3d98fc34	0.07469979
230	0xbd274961	-0.040841464
231	0x3e498f3b	0.19683544
232	0x3d9b4b5c	0.07582733
233	0x3e37b716	0.17940935
234	0xbcfc7836	-0.03081904
235	0xbe12d804	-0.14340216
236	0x3d5a478a	0.05329088
237	0xbe132fe1	-0.14373733
238	0xbe6a7149	-0.22894777
239	0xbe26b1e8	-0.16278803
240	0xbbd83afa	-0.0065988274
241	0xbdf4a70d	-0.11945925
242	0x3d8053f6	0.06266014
243	0xbe88e535	-0.2673737
244	0x3c079fe2	0.008277865
245	0xbf1292fb	-0.57255524
246	0xbefd08ed	-0.49420872
247	0xbd474ff7	-0.048660245
248	0xbe4f94f6	-0.20271668
249	0x3df95800	0.12174988
250	0xbd83bdfd	-0.06432722
251	0xbe9a2657	-0.30107376
252	0xbea519ff	-0.32246396
253	0xbd6f3fee	-0.058410577
254	0xbe56f1ba	-0.20990649
255	0xbe4fd65c	-0.20296615

fc1.bias f4 [128]
0	0x3e40e6ee	0.18838093
1	0xbe2acdbd	-0.16680045
2	0xbce64d7c	-0.02811312
3	0x3ca599ee	0.020215001
4	0xbb68fa40	-0.0035549551
5	0xbdf12e8b	-0.117764555
6	0x3d8cbc26	0.06871824
7	0xbb6ff231	-0.0036612863
8	0xbe2fcf42	-0.17168906
9	0xbca8bc23	-0.020597523
10	0xbe542456	-0.20716986
11	0x3e0ba6a7	0.13637792
12	0x3dc04296	0.093877
13	0xbe30bdbe	-0.17259881
14	0x3d4e10e9	0.050309096
15	0xbdc8888a	-0.09791668
16	0xbe9e4701	-0.30913547
17	0xbce4838e	-0.027894761
18	0x3d8f4869	0.06996233
19	0xbd913d66	-0.07091789
20	0x3e2c849a	0.16847458
21	0xbe93814c	-0.28809583
22	0xbefab982	-0.48969656
23	0xbdab785c	-0.08372566
24	0x3e1a17c9	0.15048136
25	0xbe8ecd81	-0.27891162
26	0x3e492c73	0.19645862
27	0x3e259354	0.16169482
28	0x3d1941c9	0.037416253
29	0xbe84e00a	-0.25952178
30	0x3d38c8f2	0.04511351
31	0x3e202a17	0.15641056
32	0x3de44cd5	0.11147467
33	0x3e1b1040	0.15142918
34	0xbea9c0ef	-0.3315501
35	0xbca0a0bd	-0.019607896
36	0x3dc801e9	0.09765989
37	0xbd3b1e0e	-0.04568296
38	0xbc37fb7e	-0.011229394
39	0x3e386753	0.18008165
40	0xbee66387	-0.44997808
41	0xbe64fd9f	-0.22362374
42	0xbeb0820c	-0.34474218
43	0xbd9d2b0d	-0.07674227
44	0xbe39e33b	-0.18153088
45	0xbea728b4	-0.32648242
46	0x3e70cb68	0.23515093
47	0x3e36df3d	0.17858596
48	0xbef22a4d	-0.47297898
49	0xbd297ed6	-0.041380726
50	0x3d97c93a	0.07411428
51	0xbeec5042	-0.46154982
52	0x3d88343e	0.066505894
53	0xbd89b444	-0.06723836
54	0xbd698f92	-0.057021685
55	0x3eb8f334	0.3612305
56	0x3b814158	0.003944557
57	0x3de522c8	0.111882746
58	0xbd49201f	-0.0491029
59	0x3ddd2846	0.10798697
60	0x3e4ecdf3	0.20195751
61	0xbe854450	-0.2602868
62	0xbf2b92db	-0.6702096
63	0xbe174b1a	-0.14774743
64	0xbe51244e	-0.20424005
65	0xbda0ce2e	-0.07851826
66	0xbf222563	-0.633383
67	0xbeb6fb6c	-0.35738695
68	0xbf19285c	-0.5982721
69	0x3b9fd0cf	0.004877187
70	0xbdf67aaf	-0.12035119
71	0xbe8561d5	-0.26051202
72	0xbe850d28	-0.259866
73	0xbd61b3e8	-0.055103213
74	0xbe5a093c	-0.21292585
75	0xbdfee5c5	-0.12446169
76	0xbebb3d61	-0.36570266
77	0x3da812f9	0.08206744
78	0x3d3c956b	0.046040934
79	0xbf21ad64	-0.631552
80	0x3e1e3341	0.1544924
81	0x3d9c9c89	0.07647044
82	0x3db5237f	0.08844661
83	0x3bac6007	0.005260471
84	0xbf012e4d	-0.50461274
85	0xbc85c97a	-0.016331423
86	0xbe999fc7	-0.30004713
87	0x3d140ace	0.036143117
88	0xbe26e2cc	-0.16297454
89	0xbd90da4b	-0.07072886
90	0xbe9f664f	-0.31132743
91	0x3de927fc	0.113845795
92	0xbe503e26	-0.20336208
93	0x3df23156	0.11825816
94	0xbe11b96a	-0.14230886
95	0x3e07ce91	0.13262393
96	0xbde98ff5	-0.11404411
97	0xbeca8e4d	-0.39561692
98	0xbefbc1f5	-0.49171415
99	0x3dd8ed6d	0.105921604
100	0xbf251942	-0.64491665
101	0x3dce8d07	0.100854926
102	0xbd2e61c8	-0.04257372
103	0xbe2ace97	-0.1668037
104	0x3e010142	0.12598136
105	0x3e069d4f	0.13145946
106	0x3dd35812	0.103195325
107	0x3dece98d	0.11567984
108	0xbe55a987	-0.20865451
109	0xbe62918a	-0.22125831
110	0xbde2a7de	-0.110671744
111	0x3e7d58f0	0.24740958
112	0x3c1b1a5f	0.009466737
113	0xbe1f907b	-0.15582459
114	0x3d502c50	0.05082351
115	0x3d957f82	0.07299711
116	0xbf38e779	-0.722282
117	0x3db08f42	0.08621074
118	0xbef5cb27	-0.48006555
119	0xbe151cd6	-0.14561781
120	0x3ceb9992	0.028759751
121	0x3d200667	0.039068606
122	0xbe3ac2a3	-0.1823831
123	0x3d9685d4	0.073497444
124	0xbe10e646	-0.14150342
125	0x3c5697e3	0.013097736
126	0xbea59c2c	-0.32345712
127	0xbe128756	-0.14309439

fc2.weight f4 [64, 128]
0	0x3e27985d	0.16366716
1	0xbe05d7f3	-0.1307066
2	0xbebc920f	-0.36830184
3	0x3e9ad1be	0.30238146
4	0x3df77e86	0.12084679
5	0xbeaf1b5a	-0.34200555
6	0x3dffc255	0.12488238
7	0x3d5c7ab9	0.053827975
8	0xbe5a19a3	-0.21298842
9	0x3dc92802	0.09822084
10	0x3c46db2e	0.012137217
11	0xbe485612	-0.19564083
12	0x3d66563c	0.056234583
13	0xbd2c5c87	-0.04208043
14	0x3d8ae11d	0.06781218
15	0x3c9a3555	0.018824259
16	0xbe1f13bc	-0.15534872
17	0xbbba1c94	-0.0056796763
18	0xbdcf142d	-0.1011127
19	0x3e090147	0.13379394
20	0xbcc29fd0	-0.023757845
21	0x3dc42c73	0.095787905
22	0xbe146ab2	-0.14493826
23	0xbd2260b7	-0.039643016
24	0xbe491f77	-0.19640909
25	0x3d6a7a32	0.05724544
26	0xbb792291	-0.0038014988
27	0xbe79f29c	-0.24408954
28	0x3c921c08	0.017835632
29	0xbe3f2c8a	-0.18669334
30	0xbc04f41e	-0.008114843
31	0xbe260901	-0.16214372
32	0xbd7f0d85	-0.062268753
33	0xbdb416df	-0.08793425
34	0x3e24cc86	0.16093644
35	0x3d39ec24	0.045391217
36	0xbd0e4c4a	-0.034740724
37	0x3d3d8398	0.046268076
38	0xbe3b658a	-0.18300453
39	0x3cc5ce90	0.024146348
40	0xbe53d386	-0.20686159
41	0x3e643b92	0.2228835
42	0x3e27e1ca	0.16394725
43	0x3d81f249	0.0634504
44	0xbbc2ef49	-0.005948935
45	0x3d130786	0.035895847
46	0xbd73386c	-0.05937998
47	0x3c7d4862	0.015459152
48	0x3d96601d	0.07342551
49	0x3e00b8ff	0.1257057
50	0xb8f882ca	-0.00011849923
51	0x3de858cc	0.11345062
52	0xbe6ca883	-0.23111157
53	0xbd7057ca	-0.058677472
54	0xbe1686c3	-0.14699845
55	0xbc8bd768	-0.017070487
56	0x3e0b68bf	0.13614176
57	0x3e0fe21f	0.14051102
58	0xbe481754	-0.19540149
59	0x3db514aa	0.08841832
60	0x3dd32390	0.103095174
61	0x3dd8e989	0.10591418
62	0xbe1c797b	-0.15280716
63	0x3df4aa93	0.11946597
64	0x3d49cec1	0.04926944
65	0x3d94bdfa	0.07262798
66	0xbdaa2b8b	-0.083090864
67	0x3e0f03b0	0.1396625
68	0xbe475087	-0.19464312
69	0x3e54dcd3	0.20787363
70	0x3d6b7622	0.057485707
71	0xbd97dd6d	-0.074152805
72	0x3d961c1d	0.07329581
73	0x3d9dfe68	0.0771454
74	0xbe449afb	-0.19199745
75	0x3e22889b	0.15872423
76	0xbdf8bcff	-0.12145423
77	0xbe2f8dec	-0.17143983
78	0xbe3b693c	-0.18301862
79	0xbe42fd1b	-0.19041865
80	0x3ba872dd	0.005140646
81	0x3d0f0394	0.03491552
82	0xbd8b6e25	-0.06808118
83	0x3d10ad93	0.035321783
84	0xbea6b5c6	-0.32560557
85	0xbd5568bb	-0.052101832
86	0x3e66e44e	0.22548029
87	0xbd8e68c9	-0.0695358
88	0x3e199edf	0.15002011
89	0xbd0bd0c0	-0.034134626
90	0x3df7f37c	0.12106988
91	0xbec84e92	-0.39122444
92	0x3d7b7440	0.06139016
93	0xbe05bbf2	-0.13059977
94	0xbe921dd6	-0.28538388
95	0xbdf52913	-0.11970725
96	0xbd3bdfe9	-0.045867834
97	0xbe65eca7	-0.22453557
98	0xbe6e6ed2	-0.23284462
99	0xbd5b4dae	-0.053540878
100	0xbef0eceb	-0.47055754
101	0x3ddfb660	0.10923457
102	0xbe1eae7a	-0.15496245
103	0x3d9ecc17	0.07753771
104	0x3d828462	0.06372906
105	0xbe89f141	-0.26941875
106	0xbd399dee	-0.04531663
107	0x3d2dd409	0.04243854
108	0x3dc41d19	0.095758624
109	0x3e1a506c	0.15069741
110	0x3c2600cd	0.010132027
111	0xbde38680	-0.11109638
112	0xbcdd524b	-0.02701678
113	0x3d528a6d	0.051401544
114	0xbd99ea87	-0.07515436
115	0xbd212da9	-0.039350186
116	0x3e2e8984	0.17044646
117	0xbe8f71a0	-0.28016376
118	0xbd19bfe2	-0.03753651
119	0xb9014dab	-0.00012331332
120	0x3d0605ff	0.032720562
121	0xbe952d05	-0.2913591
122	0x3dabfc71	0.08397759
123	0xbdd6bd9a	-0.104853824
124	0x3d10dd0d	0.03536706
125	0x3db937e6	0.09043865
126	0x3c594963	0.013262126
127	0x3da63343	0.08115246
128	0xbf16e312	-0.5894023
129	0x3deb8fd3	0.11502042
130	0x3d84e1a0	0.06488347
131	0xbf673dd0	-0.90328693
132	0x3ebbecf5	0.3670422
133	0x3def326e	0.116795406
134	0xbe82ae61	-0.25523666
135	0xbf2a8b68	-0.6661897
136	0x3bada9ab	0.005299767
137	0x3c978f8c	0.018501066
138	0xbe1b7bb3	-0.15183906
139	0xbd085b5a	-0.033290245
140	0xbeabe794	-0.33575118
141	0x3e9b5d0c	0.30344427
142	0xbccc670b	-0.024951478
143	0xbfa3dff2	-1.2802718
144	0xbe3f6830	-0.18692088
145	0x3d866b73	0.06563463
146	0xbe9f6400	-0.3113098
147	0xbd4f93d6	-0.050678097
148	0xbeb75107	-0.35804006
149	0x3d922e4b	0.07137736
150	0x3e2e84fd	0.17042919
151	0x3e38c3fa	0.18043509
152	0xbe2d5c33	-0.16929702
153	0xbe749e39	-0.23888482
154	0x3d32e180	0.043672085
155	0x3e2f78f2	0.1713598
156	0xbf25a614	-0.6470654
157	0xbe1e4702	-0.15456775
158	0x3d5d5d58	0.054044098
159	0xbd96b1bf	-0.07358121
160	0xbd433255	-0.047655422
161	0xbd8dd2d1	-0.06924976
162	0xbd94dab2	-0.07268275
163	0xbe9b23eb	-0.3030084
164	0xbea26323	-0.3171626
165	0xbe8c37d3	-0.2738634
166	0x3e42bd06	0.19017419
167	0x3dea0d6a	0.1142834
168	0x3dc58098	0.09643668
169	0x3b2bfbd0	0.0026242621
170	0xbe7a2ce0	-0.24431181
171	0x3e285379	0.16438092
172	0xbe56cbef	-0.20976232
173	0xbecd0421	-0.40042213
174	0xbdd9ad65	-0.106287755
175	0xbed20435	-0.41018835
176	0x3d128d2b	0.03577916
177	0x3dc31f3b	0.09527441
178	0xbde1c6ae	-0.11024223
179	0x3e2c5cec	0.16832322
180	0x3d580ac5	0.052744646
181	0xbe63bc64	-0.22239834
182	0x3def918c	0.11697683
183	0xbebbea4d	-0.36702195
184	0xbf754781	-0.9581223
185	0xbdf62dcb	-0.12020453
186	0x3b49d973	0.0030799776
187	0xbed84614	-0.42240965
188	0xbdc7a052	-0.097473755
189	0xbe2e1452	-0.16999939
190	0xbc07a101	-0.008278132
191	0xbd7fda59	-0.062464092
192	0x3d8b5826	0.06803922
193	0xbdf59a97	-0.11992376
194	0x3d92e628	0.07172805
195	0xbe9d6a43	-0.30745134
196	0x3c7337a7	0.0148448115
197	0xbfa02994	-1.2512689
198	0xbe623787	-0.22091495
199	0xbd67ecbd	-0.056622256
200	0xbe1f9597	-0.15584408
201	0xbe498969	-0.19681324
202	0xbe8d6288	-0.27614236
203	0xbe23b426	-0.1598669
204	0x3d849c83	0.06475165
205	0xbea09aef	-0.31368205
206	0x3de2f01d	0.11080954
207	0x3cf4c4e6	0.029879045
208	0xbeb5080a	-0.35357696
209	0xbe808a7d	-0.25105658
210	0x3d7ef838	0.06224844
211	0x3d44b81c	0.048027143
212	0xbc12fda9	-0.00897161
213	0x3bfbea91	0.0076878746
214	0xbe09fc82	-0.1347523
215	0x3d50a01a	0.050933935
216	0x3920db07	0.00015340383
217	0x3e1d0b6a	0.15336385
218	0xbe9592d6	-0.2921359
219	0x3d726b86	0.059184574
220	0xbea10911	-0.3145223
221	0x3e3452b7	0.17609678
222	0xbe50b362	-0.20380929
223	0xbea53359	-0.32265738
224	0xbdfa380d	-0.12217722
225	0x3cbbf489	0.022943752
226	0x3e032e5e	0.12810656
227	0x3e2f253c	0.17104048
228	0x3da4cf4a	0.0804735
229	0x3d440977	0.04786059
230	0x3d159b94	0.036525324
231	0x3dba6377	0.09101003
232	0xbe1974d2	-0.1498597
233	0xbd0848f9	-0.033272717
234	0x3e8463ac	0.25857294
235	0xbe5f9529	-0.21834244
236	0x3e0c14d5	0.13679822
237	0xbe02a091	-0.12756564
238	0x3e9f2480	0.31082535
239	0x3d5f6c17	0.054546442
240	0xbe30a88b	-0.17251794
241	0x3d52cebc	0.05146669
242	0x3dac3fc1	0.084105976
243	0xbe351ec3	-0.17687516
244	0x3c3d8a31	0.011568592
245	0x3b9a096f	0.0047008316
246	0xbd0bcfbb	-0.034133654
247	0x3dc3d55a	0.09562178
248	0xbf5813b6	-0.84405077
249	0x3dab4b59	0.08363981
250	0xbceff11f	-0.02928978
251	0xbe83e960	-0.25763988
252	0x3e4bd1fd	0.19904323
253	0xbe385144	-0.1799975
254	0xbe7a5f71	-0.2445047
255	0xbe94e157	-0.2907817

fc2.bias f4 [64]
0	0x3c27a87c	0.010233041
1	0x3e88ea93	0.26741466
2	0xbdaa6422	-0.0831988
3	0x3da4bf87	0.080443434
4	0x3e2de7d5	0.16982968
5	0x3e92fb56	0.2870738
6	0x3e0a67b3	0.1351612
7	0x3dd0bc25	0.10192136
8	0x3daeed28	0.08541328
9	0x3d0978f7	0.033562627
10	0x3dda43d7	0.10657471
11	0x3e6d0a4c	0.23148459
12	0x3e4c9b73	0.19981174
13	0x3e11dcf2	0.1424444
14	0x3e36aafd	0.17838664
15	0x3ccede0f	0.02525237
16	0xbd9e90e9	-0.07742483
17	0x3d84509b	0.06460687
18	0x3dd4b89b	0.10386773
19	0x3e1bbe7d	0.15209384
20	0x3a9b1ba4	0.0011833799
21	0x3e384f3b	0.17998974
22	0x3dcdc01a	0.10046406
23	0x3d5f98f3	0.054589223
24	0x3d5007d8	0.05078873
25	0x3d558710	0.05213076
26	0x3e7c71f9	0.24652852
27	0x3e88362a	0.26603824
28	0x3dbe8152	0.0930201
29	0x3dbfeac1	0.09370948
30	0x3e26b6d6	0.16280684
31	0x3e0f4bc2	0.13993743
32	0x3e05ab39	0.13053598
33	0x3daaaf0e	0.0833417
34	0x3d8ad398	0.067786396
35	0x3e0c9e3c	0.13732237
36	0x3e2a6c49	0.1664287
37	0x3dc9e82d	0.09858737
38	0x3d914392	0.07092966
39	0x3e314d58	0.1731466
40	0x3e01d0ec	0.12677354
41	0x3ddea420	0.10871148
42	0x3da22805	0.07917789
43	0x3e06abd4	0.13151485
44	0x3e1ce8c0	0.15323162
45	0x3e4e6c32	0.2015846
46	0x3ea2f679	0.3182867
47	0x3d2d961c	0.042379484
48	0x3e7a4495	0.24440224
49	0x3d265030	0.040603817
50	0x3e2a5ddc	0.16637367
51	0x3dd20ee8	0.102567494
52	0x3d8249af	0.0636171
53	0x3e485e8e	0.1956732
54	0x3db7de6b	0.0897797
55	0x3dfb8738	0.1228165
56	0x3e15805a	0.14599743
57	0x3d848db9	0.06472344
58	0x3e1e5f60	0.1546607
59	0x3e14c84f	0.14529537
60	0x3e6cf6e6	0.2314106
61	0x3e1e4792	0.1545699
62	0x3e1dd700	0.15414047
63	0x3e4f7b77	0.20261942

fc3.weight f4 [1, 64]
0	0x3e9dc332	0.30812985
1	0x3f3d8629	0.7403284
2	0x3e8ec3f2	0.2788387
3	0x3e84e8c0	0.25958824
4	0xbf051021	-0.51977736
5	0x3f02aec9	0.5104795
6	0x3ec4d021	0.3844004
7	0xbe8aa433	-0.270784
8	0xbed052fd	-0.40688315
9	0xbe225a88	-0.15854847
10	0xbeb55243	-0.35414323
11	0x3f3e555d	0.74349004
12	0x3ea1c38d	0.31594506
13	0xbe9575d7	-0.29191467
14	0xbe8ca3aa	-0.27468616
15	0xbeff4420	-0.49856663
16	0x3ec2adb5	0.38023153
17	0x3ea6d374	0.325832
18	0x3e854b61	0.26034072
19	0xbef0ecd9	-0.470557
20	0x3e42bbb7	0.1901692
21	0x3ed0c0b9	0.40772036
22	0x3ea63413	0.32461604
23	0x3eb39f97	0.35082695
24	0xbeb41df5	-0.35179105
25	0xbe20c966	-0.15701827
26	0x3eb34bc4	0.35018742
27	0x3eaea968	0.34113622
28	0x3eb72edb	0.35777935
29	0xbe9d552c	-0.30729043
30	0x3eb569dc	0.35432327
31	0xbf217590	-0.6307001
32	0x3ea9144d	0.330233
33	0xbebe2cac	-0.37143457
34	0xbe88af84	-0.26696408
35	0xbee8c9d1	-0.45466474
36	0x3ed2b7b3	0.41155776
37	0x3e94ccd5	0.29062524
38	0xbe8d1d11	-0.27561238
39	0xbefde60b	-0.4958957
40	0xbf0450f8	-0.5168605
41	0xbed023e6	-0.40652388
42	0xbe43dae8	-0.19126475
43	0x3e839783	0.25701532
44	0xbedd04ce	-0.43167728
45	0xbed3415e	-0.4126081
46	0x3f585802	0.8450929
47	0xbdda6271	-0.106633075
48	0xbe47b696	-0.19503245
49	0x3e884cf9	0.26621225
50	0x3ecf9c79	0.40549067
51	0xbe83fa05	-0.25776687
52	0xbe81bd3b	-0.25339684
53	0x3efc11d4	0.49232352
54	0x3e97464e	0.29545826
55	0x3f082c11	0.5319224
56	0x3e94a376	0.2903096
57	0xbee4bd59	-0.4467571
58	0xbf0a99c0	-0.54140854
59	0xbea0a02c	-0.313722
60	0x3ee4c3a4	0.44680512
61	0x3ea93f96	0.33056325
62	0xbeaacc4f	-0.33359
63	0xbee1f381	-0.4413109
