models/mlp_pytorch_baseline_cv.pth (torch, 47381 bytes, 5 tensors)

fc1.weight f4 [128, 20]
0.13213453 -0.22934109 -0.1604784 -0.15817572 0.40404856 -0.63116366 0.026849858 0.008686349
0.21139933 -0.08719176 0.09104559 -0.17989165 0.016914839 -0.12885906 0.22396016 -0.010166668
-0.097305626 0.1742469 0.049407553 0.020662408 -0.08217925 0.03294475 -0.13088086 -0.08066441
0.3073426 -0.12971985 0.1683359 0.30624324 0.06501063 0.025841411 0.0806449 0.24506143
0.22461963 -0.17390688 -0.2529364 -0.25636354 -0.32843298 -0.19336006 -0.010512242 -0.06803718
0.27861282 0.13151975 -0.1951807 -0.5823174 -0.51842576 -0.34306136 0.04233784 0.14445516
0.19217779 0.22377867 0.01058071 0.30749863 0.0132189095 0.08273494 -0.62911516 0.23412004
-0.036643118 -0.1593006 0.09169237 -0.27195024 0.29364663 -0.23534311 0.25441298 -0.36245763
-0.56406826 -0.63242596 -0.13843742 0.08318189 -0.13023949 -0.18165429 -0.14289494 -0.088332094
-0.2161703 0.09576392 -0.18055445 -0.09309494 0.1798912 -0.1816777 -0.044235766 -0.1948025
-0.06237452 0.13367768 0.18561842 0.37369195 0.39612362 0.35608646 0.2504922 0.26455447
0.0358438 0.28995812 0.038812783 0.2558989 0.027815908 0.09744471 -0.11594549 0.0654781
-0.17274304 0.21765594 0.30732268 0.19633256 0.069504224 0.07320279 0.3463048 0.030394217
-0.35098097 0.5633462 -0.09871376 -0.03591797 -0.008760401 -0.23663118 0.04992757 -0.17735061
-0.23849438 -0.079670325 0.2146754 -0.32548422 0.09851266 0.070641845 0.03508751 0.018348629
0.27239412 -0.16364342 -0.18770689 -0.36833295 -0.09871049 -0.07986455 -0.07451854 0.0068133464
0.23113391 0.049576234 -0.018077642 -0.12681052 0.012170882 0.0484571 0.16596207 0.16096187
0.14535828 0.02973584 0.057630822 0.051868167 0.45659602 -0.32058638 0.07756478 0.049192294
-0.0030465922 -0.42356128 0.06962446 -0.09940452 0.015926903 0.17381157 0.038450696 -0.47349232
0.03393445 0.043590996 -0.26686406 0.28436008 -0.059727546 0.13439228 -0.09616853 0.019464348
0.15105347 0.088853724 0.15396945 -0.11951821 0.023715788 -0.44277218 0.11646942 -0.06012389
0.20427959 0.054759312 -0.053324208 -0.071877435 -0.08725133 0.09309861 0.072748765 0.10429656
0.060220372 0.029332248 -0.08896757 -0.5394872 0.24678929 0.01387507 0.049650252 -0.7895952
-0.89157426 -0.3505926 0.07301888 -0.020144902 0.17254798 -0.039291296 -0.32439858 0.048454337
0.038877323 0.083128385 0.07357889 0.085392505 0.10235223 -0.08139146 0.0026891297 0.015586673
-0.28226945 -0.007019245 -0.04115866 0.18168555 0.1555054 1.0164608 0.06910153 0.10559664
0.11827587 -0.06816085 -0.6081502 0.15499127 0.049300496 0.21435258 0.5676388 0.028107649
0.035517517 -0.06022047 -0.00066254096 0.012423242 0.11513071 -0.27445844 0.22439376 -0.2199701
0.1448317 -0.0060015707 0.13801768 -0.036506057 0.08660559 0.41637677 0.002228014 0.0074074543
-0.06040983 -0.13536163 0.1736723 0.07392625 0.108915195 -0.008062321 0.23491292 0.07894356
0.09838967 0.10640661 -0.031069923 -0.008726559 0.16347419 0.2004556 -0.12992677 -0.11268456
0.051530942 -0.06486173 -0.2326646 -0.15074272 0.06184098 -0.102661505 -0.18709539 0.045498066
00000000: 464e 073e 64d8 6abe 7354 24be d1f8 21be
00000010: 74df ce3e f193 21bf 3cf4 db3c 3051 0e3c
00000020: 1179 583e 9891 b2bd 1c76 ba3d 8435 38be
00000030: fd90 8a3c a1f3 03be d055 653e 1992 26bc
00000040: 2c48 c7bd c86d 323e 935f 4a3d 3644 a93c
00000050: 984d a8bd 13f1 063d a205 06be 6233 a5bd
00000060: 025c 9d3e 48d5 04be 3f60 2c3e eacb 9c3e
00000070: 4b24 853d 5eb1 d33c 2729 a53d 62f1 7a3e
00000080: b002 663e a514 32be e180 81be 1542 83be
00000090: 5e28 a8be 2e00 46be 8a3b 2cbc 1457 8bbd
000000a0: 57a6 8e3e 1dad 063e 73dd 47be c112 15bf
000000b0: 8db7 04bf bda5 afbe 716a 2d3d 0eec 133e
000000c0: 41ca 443e 3c26 653e b75a 2d3c 7670 9d3e
000000d0: 2094 583c f070 a93d b10d 21bf 2abd 6f3e
000000e0: 1817 16bd b21f 23be 36c9 bb3d 103d 8bbe
000000f0: da58 963e c9fd 70be 6b42 823e 0c94 b9be
00000100: c766 10bf abe6 21bf 8ac2 0dbe 445b aa3d
00000110: 805d 05be 9503 3abe 0d53 12be 75e7 b4bd
00000120: bf5b 5dbe e01f c43d 44e3 38be 8fa8 bebd
00000130: 6635 383e b809 3abe 9030 35bd 4e7a 47be
00000140: 6d7c 7fbd cde2 083e c112 3e3e 8d54 bf3e
00000150: b7d0 ca3e f750 b63e 8340 803e af73 873e
00000160: f3d0 123d 6475 943e 27fa 1e3d 2e05 833e
00000170: 30de e33c 1891 c73d d474 edbd 6219 863d
00000180: 8de3 30be 33e1 5e3e 6659 9d3e 670b 493e
00000190: 3b58 8e3d 58eb 953d dd4e b13e 4bfd f83c
000001a0: c7b3 b3be 7537 103f 712a cabd b91e 13bd
000001b0: c987 0fbc 724f 72be da80 4c3d 669b 35be
000001c0: df37 74be 322a a3bd ded3 5b3e dea5 a6be
000001d0: 01c1 c93d acac 903d ecb7 0f3d dd4f 963c
000001e0: 3e77 8b3e 2492 27be 3c36 40be 2396 bcbe
000001f0: ba28 cabd 0690 a3bd 2d9d 98bd 7e42 df3b
00000200: 5eae 6c3e 7310 4b3d 9017 94bc 9eda 01be
00000210: 6168 473c f47a 463d f6f1 293e 30d3 243e
00000220: cdd8 143e 9498 f33c 4c0e 6c3d b773 543d
00000230: f4c6 e93e e623 a4be 49da 9e3d dc7d 493d
00000240: 56a9 47bb 06dd d8be 4597 8e3d 9994 cbbd
00000250: 2379 823c a9fb 313e 7a7e 1d3d 966d f2be
00000260: dafe 0a3d 798c 323d 68a2 88be a597 913e
00000270: dfa4 74bd 219e 093e 02f4 c4bd b273 9f3c
00000280: c3ad 1a3e f1f8 b53d 2baa 1d3e f7c5 f4bd
00000290: 9d47 c23c 09b3 e2be 8587 ee3d 7844 76bd
000002a0: ab2e 513e 4d4b 603d 7c6a 5abd 7a34 93bd
000002b0: d3b0 b2bd 7caa be3d 4efd 943d 6f99 d53d
000002c0: a3a9 763d 2f4a f03c a134 b6bd d51b 0abf
000002d0: 55b6 7c3e 4354 633c 105e 4b3d e922 4abf
000002e0: 363e 64bf e080 b3be ec8a 953d ec06 a5bc
000002f0: 6bb0 303e e9ef 20bd 9217 a6be 0e78 463d
00000300: d43d 1f3d 373f aa3d 87b0 963d 44e2 ae3d
00000310: 0c9e d13d 91b0 a6bd 1c3c 303b 3f5f 7f3c
00000320: 9f85 90be b201 e6bb fc95 28bd c70b 3a3e
00000330: cf3c 1f3e 631b 823f 1a85 8d3d 0d43 d83d
00000340: 9f3a f23d ea97 8bbd bbaf 1bbf 08b6 1e3e
00000350: 51ef 493d 3e7f 5b3e c750 113f 0342 e63c
00000360: d17a 113d bda9 76bd 5fae 2dba db8a 4b3c
00000370: a6c9 eb3d d185 8cbe 7ac7 653e d83f 61be
00000380: c34e 143e d3a8 c4bb 8254 0d3e 6087 15bd
00000390: 465e b13d 562f d53e df03 123b 3bba f23b
000003a0: 4c70 77bd 3d9c 0abe 27d7 313e a566 973d
000003b0: ee0e df3d d317 04bc 038d 703e 29ad a13d
000003c0: 8680 c93d b5eb d93d 5a86 febc d7f9 0ebc
000003d0: c765 273e 3c44 4d3e 860b 05be 2ac7 e6bd
000003e0: 1c12 533d 3ad6 84bd a13f 6ebe 4d5c 1abe
000003f0: f84c 7d3d 3240 d2bd ef95 3fbe 2e5c 3a3d

fc1.bias f4 [128]
0.13837174 -0.260961 0.12305442 -0.13677026 -0.7715121 0.22499067 0.16793711 0.104019664
0.15832579 0.059432007 0.023720236 -0.69780725 -0.18188944 -0.2831485 0.12606403 -0.40038854
-0.0863752 0.036471106 -0.18338016 -0.08952294 -0.7801166 -0.36704126 -0.46973774 -0.110011816
-0.025201805 -0.005611593 -0.21016124 -0.042111944 0.12955108 0.14241143 0.2568313 0.14246048
-0.25768656 -0.058088448 0.12651588 -0.09704801 -0.061239045 -0.0074643292 -0.57928 0.023880037
0.17817011 0.03707881 -0.2645545 0.09010461 -0.18249977 0.21571146 0.13925791 0.14124984
0.08018118 -0.68332744 0.07363429 0.16364345 -0.12724529 0.0947431 0.11081655 0.14185572
-0.04492396 0.042475607 0.06617704 0.097554356 -0.074382246 -0.29350954 0.0989282 -0.13743268
-0.21172725 -0.14238127 -0.6178902 -0.07452709 0.17804584 -0.21418336 -0.085646 0.19177356
0.18934377 0.20212126 -0.22520787 0.0006785711 -0.01706247 0.119710386 0.20941329 -0.32251424
0.16271232 -0.20202295 -0.3402974 -0.06517061 0.1959096 0.09764141 0.061478034 -0.112227075
-0.23169862 0.11459384 -0.6562466 0.0034447496 -0.2764067 -0.19683962 -0.19839989 0.0923095
-0.2520931 -0.21424474 0.08117852 0.089505404 0.09076733 0.04104505 -0.8011175 -0.15303247
0.016853895 -0.3337022 0.21952422 -0.30747995 -0.04897924 -0.21063225 -0.077671796 -0.15925868
-0.33597344 0.10593732 0.018879456 -0.04240055 0.116563626 0.17227358 0.23361021 0.1219956
0.03884195 0.11718971 -0.37151146 0.2215552 -0.5520922 -0.100399554 -0.27219683 0.17251274
00000000: 52b1 0d3e ae9c 85be f503 fc3d 810d 0cbe
00000010: d181 45bf f463 663e b5f7 2b3e 4308 d53d
00000020: 2820 223e fa6e 733d f150 c23c 7fa3 32bf
00000030: 3a41 3abe d7f8 90be ee16 013e baff ccbe
00000040: 7be5 b0bd ba62 153d 02c8 3bbe ce57 b7bd
00000050: b9b5 47bf d5ec bbbe 7781 f0be e04d e1bd
00000060: 0474 cebc 74e1 b7bb 8234 57be 937d 2cbd
00000070: 0aa9 043e 4dd4 113e 647f 833e 29e1 113e
00000080: 7eef 83be 27ee 6dbd 618d 013e 1bc1 c6bd
00000090: cbd5 7abd 5597 f4bb b24b 14bf 11a0 c33c
000000a0: 3a72 363e f3df 173d b073 87be c488 b83d
000000b0: 38e1 3abe 77e3 5c3e a099 0e3e cca3 103e
000000c0: 0836 a43d 8cee 2ebf 93cd 963d 2692 273e
000000d0: 974c 02be ac08 c23d caf3 e23d a042 113e
000000e0: 3002 38bd e7fa 2d3d d487 873d 94ca c73d
000000f0: b855 98bd e246 96be de9a ca3d 27bb 0cbe
00000100: 07cf 58be 65cc 11be 0d2e 1ebf a9a1 98bd
00000110: a651 363e e252 5bbe 2c67 afbd 4a60 443e
00000120: 55e3 413e e0f8 4e3e e49c 66be 23e2 313a
00000130: 98c6 8bbc b82a f53d 7070 563e 9620 a5be
00000140: 0f9e 263e 1bdf 4ebe 763b aebe 2b78 85bd
00000150: 879c 483e 38f8 c73d 64d0 7b3d 4fd7 e5bd
00000160: 6742 6dbe 2db0 ea3d c7ff 27bf 4fc1 613b
00000170: 2e85 8dbe 5390 49be 5729 4bbe c30c bd3d
00000180: 5912 81be f962 5bbe ed40 a63d 9c4e b73d
00000190: 39e4 b93d db1e 283d 0916 4dbf 8bb4 1cbe
000001a0: 2e11 8a3c 04db aabe f5ca 603e 036e 9dbe
000001b0: 759e 48bd fbaf 57be 6412 9fbd b514 23be
000001c0: b604 acbe aaf5 d83d 17a9 9a3c 33ac 2dbd
000001d0: e9b8 ee3d 7c68 303e 8437 6f3e d4d8 f93d
000001e0: bd18 1f3d 2901 f03d c036 bebe 5edf 623e
000001f0: ea55 0dbf 489e cdbd 625d 8bbe 2ea7 303e

fc2.weight f4 [64, 128]
0.04724913 0.05533766 0.0321686 -0.11693319 -0.11513091 -0.20764942 -0.24022916 0.016655123
0.015372277 -0.077575184 -0.19347806 0.0019083173 -0.0019792805 0.10628837 -0.07861794 0.17991047
0.20171583 -0.053198613 0.015804138 -0.00177678 0.026491277 0.17623977 -0.0925594 -0.16988677
0.046384633 0.027174708 -0.058001284 0.1344913 -0.017000012 -0.21458818 -0.014371063 -0.283461
0.12621173 0.06900253 -0.13825884 -0.044897012 0.032795582 -0.312776 0.01736036 -0.047737345
-0.21054162 -0.08345174 0.12897131 0.14889239 -0.085446276 -0.13656299 0.057505183 -0.21462527
-0.06668149 -0.18827526 0.050049614 0.0054316074 0.010152964 0.054135684 -0.16380142 -0.3404862
0.08023942 -0.2096535 -0.03447975 0.15122698 0.031015255 -0.038379926 -0.01838405 -0.07926417
-0.0012127392 0.031804506 0.03757081 0.10101483 -0.004169773 0.05492197 -0.43120745 0.05845984
0.0014098444 0.04921202 0.0037372296 -0.10510337 -0.1900434 -0.08945864 -0.085587665 0.013268977
-0.03474351 -0.048199017 -0.06315461 -0.14904647 0.07070167 0.038113955 -0.10080771 -0.19627354
0.17990372 0.023091149 -0.18579246 -0.10560918 0.060760777 -0.17980786 0.12051727 -0.13781841
0.13595647 -0.44089288 -0.10652379 0.09900077 -0.26985592 0.009509459 -0.12045482 -0.052159723
0.12549561 -0.1856924 0.14045005 0.053335965 0.035749305 0.08780405 0.04626735 0.0068828817
-0.2505941 -0.10354459 0.12047122 -0.08220157 -0.05568361 -0.16820496 -0.16175972 -0.103698455
0.004042906 -0.12186283 -0.024839709 -0.12813686 0.026967304 0.01548887 0.11912394 -0.27709886
0.04624121 -0.26749083 0.21156387 0.24376832 0.039781827 -0.061411362 -0.051788494 0.06504946
0.07706578 0.10708927 0.17851429 -0.18357603 -0.07457939 -0.18277754 0.057002947 -0.2626074
0.06835067 0.21384135 -0.03986963 -0.07395011 -0.22920007 -0.18281792 -0.19706926 -0.05898726
0.010516138 -0.025466578 -0.077149786 0.14765249 0.019002816 0.067778856 0.021268798 0.06892326
-0.20651437 -0.071469046 0.06082704 0.09835905 0.1300289 -0.019586748 -0.27380309 0.05631707
0.07946829 0.059018157 -0.10527301 0.14822195 0.02427208 0.09776199 0.08956687 0.0080671795
0.050117534 -0.035531987 0.01967298 0.0109645985 -0.16624111 0.02106318 0.011307189 0.038424294
0.040610667 0.032500353 -0.066158116 0.061601408 -0.0006569249 -0.19483925 0.15603113 -0.07060395
0.0007270599 -0.10492112 -0.18190038 -0.0625144 0.0993815 -0.09290573 0.17557254 0.088810325
-0.016555209 0.048235014 -0.1591235 0.11296804 -0.090353526 0.040421847 0.10690441 -0.26450944
0.059409924 -0.017184539 0.65420836 0.04115202 0.13410929 0.13300496 -0.10145407 -0.09751759
-0.16002002 -0.06514041 -0.07148575 0.037931345 -0.11186673 -0.11816805 -0.13937852 -0.010550852
-0.2621928 0.36536378 -0.021593483 0.0379555 0.020734197 -0.019692713 -0.039264064 -0.047794554
0.099134155 -0.18536967 0.085586555 -0.22917522 -0.039018754 0.4272957 -0.020164588 -0.14216796
0.5463687 0.046644438 -0.09607709 0.106743336 0.08397856 -0.074175715 0.024723684 -0.022007398
0.19539085 0.003048342 -0.117850654 0.07439353 -0.0789663 -0.041798037 -0.12987264 0.10995094
00000000: 4e88 413d bea9 623d 39c3 033d ab7a efbd
00000010: c1c9 ebbd 0da2 54be a2fe 75be 5370 883c
00000020: 01dc 7b3c bddf 9ebd 1d1f 46be 8120 fa3a
00000030: d1b6 01bb b8ad d93d 7102 a1bd 733a 383e
00000040: 988e 4e3e cae6 59bd ae77 813c d8e2 e8ba
00000050: 3c04 d93c 3378 343e c88f bdbd ccf6 2dbe
00000060: d0fd 3d3d 7e9d de3c c192 6dbd 16b8 093e
00000070: 9c43 8bbc 01bd 5bbe 9b74 6bbc cd21 91be
00000080: a63d 013e 3351 8d3d ba93 0dbe eee5 37bd
00000090: a954 063d 2d24 a0be 5037 8e3c 3c88 43bd
000000a0: 3998 57be bfe8 aabd 0e11 043e 3f77 183e
000000b0: 75fe aebd 2bd7 0bbe 8e8a 6b3d bac6 5bbe
000000c0: 4e90 88bd 3bcb 40be d300 4d3d a0fb b13b
000000d0: 9e58 263c 61bd 5d3d 8fbb 27be 3554 aebe
000000e0: 9154 a43d 68af 56be a33a 0dbd 3fdb 1a3e
000000f0: b413 fe3c 4534 1dbd 269a 96bc 4155 a2bd
00000100: c6f4 9eba 7145 023d dae3 193d dde0 ce3d
00000110: 97a2 88bb dcf5 603d 39c7 dcbe 9673 6f3d
00000120: 87ca b83a 8b92 493d 4fec 743b 7040 d7bd
00000130: bd9a 42be 1736 b7bd 9648 afbd 2066 593c
00000140: 364f 0ebd 556c 45bd 3457 81bd a39f 18be
00000150: 0acc 903d 611d 1c3d 4674 cebd eefb 48be
00000160: ae38 383e a629 bd3c 6140 3ebe a049 d8bd
00000170: 4be0 783d 8d1f 38be c2d1 f63d 4520 0dbe
00000180: 2c38 0b3e b6bc e1be 2529 dabd eac0 ca3d
00000190: 8e2a 8abe 90cd 1b3c 04b1 f6bd 6fa5 55bd
000001a0: ec81 003e 2626 3ebe 23d2 0f3e d076 5a3d
000001b0: dd6d 123d 9cd2 b33d d582 3d3d cc89 e13b
000001c0: df4d 80be 300f d4bd 9db9 f63d 4c59 a8bd
000001d0: 7f14 64bd ec3d 2cbe 57a4 25be db5f d4bd
000001e0: 5b7a 843b 3893 f9bd a57c cbbc 4f36 03be
000001f0: 89ea dc3c 08c5 7d3c 41f7 f33d e7df 8dbe
00000200: 6c67 3d3d 8ff4 88be 33a4 583e 679e 793e
00000210: 45f2 223d 7b8a 7bbd 2c20 54bd a738 853d
00000220: aad4 9d3d 9f51 db3d 73cc 363e 5bfb 3bbe
00000230: 14bd 98bd 092a 3bbe ec7b 693d 7a74 86be
00000240: 70fb 8b3d 3af9 5a3e 564e 23bd 2873 97bd
00000250: 6cb3 6abe 9f34 3bbe 86cc 49be a09c 71bd
00000260: e14b 2c3c 499f d0bc b500 9ebd 3732 173e
00000270: cbab 9b3c a4cf 8a3d e73b ae3c a327 8d3d
00000280: 8178 53be 5d5e 92bd c625 793d 7870 c93d
00000290: 4c26 053e 6374 a0bc eb2f 8cbe baac 663d
000002a0: 45c0 a23d 06bd 713d 6099 d7bd 7fc7 173e
000002b0: 3ed6 c63c 7037 c83d d66e b73d 342c 043c
000002c0: 0b48 4d3d fd89 11bd 3b29 a13c dca4 333c
000002d0: 1c3b 2abe b18c ac3c ca41 393c cb62 1d3d
000002e0: 5f57 263d 171f 053d e87d 87bd c251 7c3d
000002f0: 7c35 2cba f183 47be a0c6 1f3e ce98 90bd
00000300: 2a98 3e3a e2e0 d6bd 1844 3abe 8d07 80bd
00000310: 8788 cb3d 5c45 bebd 4ac9 333e 30e2 b53d
00000320: ca9e 87bc 1492 453d 45f1 22be ca5b e73d
00000330: 450b b9bd 6191 253d b3f0 da3d c86d 87be
00000340: d257 733d 97c6 8cbc 337a 273f 058f 283d
00000350: f253 093e 7432 083e 27c7 cfbd 4db7 c7bd
00000360: 4adc 23be 5668 85bd 1f67 92bd e65d 1b3d
00000370: 621a e5bd 1702 f2bd 3eb9 0ebe 7bdd 2cbc
00000380: 223e 86be f610 bb3e d1e4 b0bc 3a77 1b3d
00000390: c3da a93c 9d52 a1bc 5bd3 20bd 39c4 43bd
000003a0: d906 cb3d 8cd1 3dbe 0148 af3d e9ac 6abe
000003b0: 21d2 1fbd 81c6 da3e 3530 a5bc 7a94 11be
000003c0: d2de 0b3f 3d0e 3f3d 11c4 c4bd 409c da3d
000003d0: f4fc ab3d 70e9 97bd 5389 ca3c dc48 b4bc
000003e0: 8a14 483e b1c6 473b af5b f1bd a35b 983d
000003f0: 15b9 a1bd 6b34 2bbd 55fd 04be f52d e13d

fc2.bias f4 [64]
0.1456025 0.08525077 0.15617518 0.13502394 0.1479072 0.12050011 0.24603648 0.22063197
0.08341717 0.068500735 0.18182142 0.10305139 0.13519397 0.042130966 0.14183162 0.20367977
0.23526937 0.14762007 0.09118823 0.09163678 0.05830043 -0.14130843 0.14422095 0.23203199
0.2267939 0.122434 0.11184836 0.1317467 0.17600119 0.10250497 0.070842005 0.09302278
-0.06481968 0.11577956 0.048786845 0.041422013 0.07786058 0.050616182 0.06472821 0.04764703
0.059720334 0.16015914 0.014662982 0.2934445 0.09457782 0.066314176 0.18234128 0.24682961
0.112804234 0.379369 0.083271265 0.18188387 0.048701216 0.036204208 0.2176983 0.07726478
0.12036215 0.19286653 0.015095566 0.11379745 0.09378077 0.12977014 0.25040802 0.16901931
00000000: d218 153e f597 ae3d 63ec 1f3e b743 0a3e
00000010: fc74 173e c3c8 f63d fdf0 7b3e 59ed 613e
00000020: 9fd6 aa3d 1d4a 8c3d 652f 3a3e 9b0c d33d
00000030: 4a70 0a3e 8591 2c3d 4f3c 113e 6e91 503e
00000040: 74ea 703e b729 173e e5c0 ba3d 10ac bb3d
00000050: 6fcc 6e3d 28b3 10be a8ae 133e cb99 6d3e
00000060: a93c 683e adbe fa3d c110 e53d 9be8 063e
00000070: a839 343e 20ee d13d 9d15 913d ba82 be3d
00000080: 2ec0 84bd d51d ed3d b7d4 473d 21aa 293d
00000090: 5e75 9f3d ea52 4f3d 3990 843d 8829 433d
000000a0: 4f9d 743d c200 243e 013d 703c 5c3e 963e
000000b0: 04b2 c13d bacf 873d acb7 3a3e e7c0 7c3e
000000c0: e805 e73d a73c c23e 208a aa3d c43f 3a3e
000000d0: ed7a 473d dd4a 143d 4eec 5e3e ff3c 9e3d
000000e0: 6e80 f63d ce7e 453e 6553 773c a30e e93d
000000f0: 2210 c03d 77e2 043e 7b35 803e 6613 2d3e

fc3.weight f4 [1, 64]
0.2866901 -0.45745715 0.2880729 0.38782403 0.3102591 -0.3635189 0.4928457 1.0373905
-0.5077049 -0.4244397 0.33621153 -0.31546834 -0.3338462 -0.21794763 0.34795082 0.3838071
0.55765355 -0.142858 -0.24842797 -0.55094576 -0.31775987 0.21494646 0.5160705 0.45645693
0.30802113 -0.44651976 -0.4947184 -0.29670236 -0.32997748 -0.36772022 0.34090102 -0.29721677
0.10577515 -0.38385776 -0.42963842 -0.15693128 -0.41059652 -0.12509362 0.27142328 -0.19406417
-0.42338768 0.3215631 0.20111851 0.45418635 0.31966498 0.23410778 0.55357957 0.4167853
-0.4317045 0.7762916 -0.45191625 0.5698155 -0.43900153 -0.25112504 0.36119574 -0.23813283
0.2807202 0.31665358 -0.32611597 -0.24134247 0.31329522 -0.46859398 0.33999512 0.28134045
00000000: 0bc9 923e d337 eabe 4b7e 933e df90 c63e
00000010: 48da 9e3e 261f babe 4656 fc3e 36c9 843f
00000020: f3f8 01bf 2950 d9be eb23 ac3e 1185 a1be
00000030: e4ed aabe aa2d 5fbe 9c26 b23e 5d82 c43e
00000040: 62c2 0e3f 5e49 12be e763 7ebe c80a 0dbf
00000050: 6cb1 a2be ed1a 5c3e 321d 043f b9b4 e93e
00000060: f2b4 9d3e 3d9e e4be bb4b fdbe 5fe9 97be
00000070: cff2 a8be d345 bcbe 948a ae3e cc2c 98be
00000080: a4a0 d83d 0189 c4be 91f9 dbbe 98b2 20be
00000090: b539 d2be 8b18 00be fef7 8a3e c2b8 46be
000000a0: 45c6 d8be eba3 a43e 03f2 4d3e 1d8b e83e
000000b0: 21ab a33e f3b9 6f3e 64b7 0d3f e264 d53e
000000c0: 5f08 ddbe 0cbb 463f 9161 e7be 6edf 113f
000000d0: cfc4 e0be 7693 80be a6ee b83e 18d9 73be
000000e0: 8fba 8f3e 6b20 a23e acf8 a6be 7b22 77be
000000f0: 3b68 a03e 8deb efbe d713 ae3e db0b 903e
