models/mlp_pytorch_baseline.pth (torch, 47345 bytes, 5 tensors)

fc1.weight f4 [128, 20]
0	0x3e75d864	0.24008328
1	0xbe5d9256	-0.21637854
2	0x3dc9b4ee	0.09848963
3	0xbe4563f5	-0.19276412
4	0x3e067c85	0.13133438
5	0xbe4ccb8d	-0.19999523
6	0x3dd47f23	0.10375812
7	0x3e07d12d	0.13263388
8	0x3d8b3d9f	0.06798863
9	0x3eb5a3f3	0.35476646
10	0x3e2086a0	0.15676355
11	0xbdb7db80	-0.08977413
12	0x3e089fc0	0.1334219
13	0x3df09b86	0.11748414
14	0x3e1daaa6	0.15397128
15	0x3e97f246	0.29677027
16	0x3dda8e95	0.106717266
17	0x3d4f0e29	0.050550614
18	0x3e8961a8	0.26832318
19	0x3dda07df	0.106460325
20	0x3db6736b	0.08908733
21	0xbdda91ac	-0.10672316
22	0x3ebdf277	0.37099048
23	0xbeb26eac	-0.3485006
24	0xbed43a34	-0.41450655
25	0xbbe32211	-0.0069315513
26	0xbd664a6b	-0.056223314
27	0xbd2b9e0c	-0.041898772
28	0x3dc51cab	0.096246086
29	0xbc9fce41	-0.01950753
30	0x3d74ab3c	0.059733614
31	0x3ce599f7	0.028027518
32	0x3cec3e2d	0.028838241
33	0x3cb5b9e6	0.02218337
34	0x3e69c5b7	0.22829328
35	0x3de21e70	0.11040962
36	0xbdd204b9	-0.10254807
37	0xbe0d4e26	-0.13799343
38	0x3e3e94c5	0.18611439
39	0x3e245f11	0.1605189
40	0xbdefd84a	-0.11711176
41	0x3cf51e00	0.029921532
42	0xbe902c30	-0.28158712
43	0x3dd24233	0.10266533
44	0x3c4f4c27	0.0126524335
45	0xbe3d701a	-0.18499795
46	0x3d34afa7	0.044112828
47	0x3e0ee36e	0.13953945
48	0x3cc1db26	0.023664068
49	0x3eb0b581	0.34513476
50	0xbe9b4306	-0.30324572
51	0xbdf29d18	-0.118463695
52	0x3db56ff7	0.08859246
53	0xbc4a906e	-0.012363536
54	0xbe33675a	-0.17519894
55	0xbc9585cd	-0.018252278
56	0xbe87ef0e	-0.26549572
57	0xbdb88eb3	-0.09011593
58	0xbd4eaa96	-0.050455652
59	0xbf816e09	-1.0111705
60	0x3e7f75ac	0.24947232
61	0xbe04441c	-0.12916607
62	0x3d88abd7	0.06673401
63	0xbf4bf802	-0.79675305
64	0xbf47808a	-0.7793051
65	0xbed1a4a4	-0.40945923
66	0x3d3751a5	0.044755597
67	0xbc2c14a8	-0.010502972
68	0x3e2257ba	0.15853778
69	0xbd87aba4	-0.06624535
70	0x3da8b61f	0.08237862
71	0x3d2061e9	0.039155874
72	0xbe1b6b85	-0.15177734
73	0xbe5c6c07	-0.21525584
74	0xbe65e38f	-0.22450088
75	0x3e0c9818	0.13729894
76	0x3c5eef3e	0.0136068445
77	0xbd63372f	-0.05547255
78	0x3d81386d	0.063095905
79	0xbeb2900e	-0.3487553
80	0xbf229039	-0.63501316
81	0xbd95e5e4	-0.07319239
82	0x3e9a3a3a	0.30122548
83	0x3cded04a	0.02719893
84	0xbd0e1d2f	-0.0346958
85	0x3c8402f2	0.016114686
86	0x3c9855f3	0.018595671
87	0xbc4a0163	-0.012329432
88	0x3d42a922	0.04752458
89	0x3e247aa0	0.16062403
90	0xbe107847	-0.14108382
91	0xbe25bb98	-0.16184843
92	0x3e625c7c	0.22105592
93	0xbd2c3bcb	-0.04204921
94	0x3e472a81	0.19449808
95	0xbf08e886	-0.534798
96	0xbe0248e8	-0.12723124
97	0x3e1f728c	0.1557104
98	0x3d2a7596	0.041616045
99	0x3ed3167b	0.4122809
100	0x3d9b99c6	0.07597689
101	0xbdc73423	-0.09726741
102	0x3dbe0d62	0.09279896
103	0xbeceab87	-0.4036524
104	0xbf4323ab	-0.762263
105	0xbe3b4c30	-0.18290782
106	0xbbaf6e16	-0.0053536994
107	0xbe52bf43	-0.20580773
108	0x3d65732e	0.056018047
109	0x3cf379d0	0.02972117
110	0xbcd1ed2a	-0.025625784
111	0x3d8f7faf	0.070067756
112	0xbd2d3e1b	-0.042295557
113	0xbddaaa82	-0.10677053
114	0x3c90cc58	0.017675564
115	0xbceed698	-0.02915506
116	0xbe348410	-0.17628503
117	0x3dc72cbe	0.09725331
118	0x3e27bcd0	0.1638062
119	0xbe695d53	-0.22789507
120	0x3e6c9acb	0.23105924
121	0xbc1fac26	-0.009745633
122	0xbdfa54b3	-0.12223186
123	0xbf523ff0	-0.8212881
124	0xbf39bdd5	-0.72555286
125	0x3b0d39be	0.002154931
126	0xbc805bd0	-0.01566878
127	0x3d904090	0.07043564
128	0x3d96dcb1	0.07366312
129	0x3cd36ae3	0.025807803
130	0xbe2f88b8	-0.17141998
131	0x3d34a6b7	0.044104304
132	0x3baec1f3	0.005333179
133	0x3da7e805	0.08198551
134	0xbd860fd8	-0.06545991
135	0xbe125d98	-0.14293516
136	0x3c687951	0.01418908
137	0x3cd76232	0.02629194
138	0x3e0397cd	0.12850876
139	0x3dea6841	0.11445666
140	0x3edcdc2e	0.43136734
141	0x3e0ad13e	0.13556382
142	0xbef6bc70	-0.4819064
143	0x3e47ddd7	0.19518219
144	0x3da046cb	0.07826003
145	0xbe43fc71	-0.19139268
146	0x3cfa7f9d	0.030578429
147	0xbd84edad	-0.064906456
148	0x3d6db238	0.05803129
149	0xbd9ef5ea	-0.07761748
150	0xbe70f6e9	-0.23531689
151	0x3d5aeccb	0.05344848
152	0x3e35fb49	0.17771639
153	0x3daa15cb	0.08304938
154	0xbf56a986	-0.8385242
155	0xbe8620b7	-0.26196834
156	0xbe39df0a	-0.18151489
157	0xbe1d8972	-0.15384462
158	0x3e11bada	0.14231434
159	0x38c28c43	9.276767e-05
160	0xbe8eeea7	-0.27916452
161	0xbe72bd63	-0.23705058
162	0x3eb246f0	0.34819746
163	0x3e42cbff	0.19023131
164	0xbe29a70c	-0.1656763
165	0x3ea2d03b	0.31799492
166	0x3d5938e8	0.053032786
167	0x3d8e4dbe	0.06948422
168	0xbac1b7dc	-0.0014779526
169	0xbe2e39ce	-0.17014238
170	0xbdeefaa8	-0.11668903
171	0xbdd36100	-0.10321236
172	0xbd1a9263	-0.03773726
173	0x3e49ec66	0.19719085
174	0x3eb2dd5b	0.34934506
175	0x3e3e4afd	0.18583293
176	0xbde86f53	-0.113493584
177	0x3d915104	0.07095531
178	0x3d30ce6d	0.043165613
179	0xbe34bd8d	-0.17650433
180	0xbd08e865	-0.033424754
181	0xbdf1b390	-0.11801827
182	0xbe74ad22	-0.2389417
183	0xbb805359	-0.003916186
184	0xbeaa592e	-0.33271164
185	0x3ea94623	0.33061323
186	0x3cd14851	0.025547178
187	0x3e488821	0.19583179
188	0xba96e09f	-0.0011511034
189	0xbe2e0926	-0.16995677
190	0x3d00578c	0.03133349
191	0x3e83d481	0.25748065
192	0x3cab5459	0.020914244
193	0x3d9503cf	0.07276117
194	0x3e1708ab	0.147494
195	0x3d788cfc	0.06068133
196	0x3e058bf4	0.13041669
197	0x3d576cd8	0.052594036
198	0xbd0b0af3	-0.03394599
199	0xbcb3abfc	-0.021932594
200	0x3e1e6a88	0.15470326
201	0x3d4967d5	0.049171288
202	0x3cb534f2	0.022119973
203	0x3df0dcf9	0.11760897
204	0x3cfe1974	0.031017996
205	0x3df9b1c8	0.12192112
206	0x3e3740bf	0.17895792
207	0x3e65cfe4	0.22442585
208	0xbe5fc5d7	-0.21852814
209	0x3da93890	0.082627416
210	0x3e357521	0.17720462
211	0xbd88f3ed	-0.0668715
212	0x3d9a7216	0.075412914
213	0xbdcac0be	-0.09900044
214	0x3bfd7ecb	0.007736062
215	0x3e332911	0.17496134
216	0x3dbf1cd4	0.093316704
217	0xbd972eca	-0.07381971
218	0x3e889cd5	0.26682153
219	0xbceeda58	-0.029156849
220	0xbddeee3f	-0.108852856
221	0x3d568e1a	0.052381612
222	0xbe43d7ab	-0.1912524
223	0xbd980973	-0.07423677
224	0x3e12d4f2	0.14339045
225	0xbec35237	-0.38148662
226	0x3e26b284	0.16279036
227	0x3e7af269	0.24506535
228	0x3e2b2bad	0.1671588
229	0x3e9f282b	0.31085333
230	0x3e58a63a	0.2115716
231	0x3d37897d	0.044808853
232	0x3d2bb1ac	0.041917488
233	0xbe3cf9e5	-0.18454702
234	0xbdfb30df	-0.12265181
235	0x3e0292c1	0.12751295
236	0xbec58cc3	-0.38583955
237	0xbd50bd95	-0.05096205
238	0xbe314ee0	-0.17315245
239	0x3d3e7bca	0.046504773
240	0x3c36ad43	0.011149707
241	0xbd951b45	-0.07280592
242	0x3ebee029	0.37280396
243	0xbe4484cd	-0.19191284
244	0xbec683e3	-0.38772497
245	0x3dabdd6a	0.08391841
246	0xbe331093	-0.17486791
247	0xbe7b1b66	-0.2452217
248	0xbe2a148a	-0.16609398
249	0xbe6f61f1	-0.23377205
250	0xbe79c11c	-0.24390072
251	0x3e269b10	0.16270089
252	0xbe8c6459	-0.2742031
253	0xbe50d504	-0.20393759
254	0xbde3ffed	-0.11132798
255	0x3d35f8cf	0.044426735

fc1.bias f4 [128]
0	0xbf155792	-0.58336747
1	0xbea35bb6	-0.31905907
2	0xbebd3921	-0.36957648
3	0xbca10c66	-0.019659232
4	0xbe2da1ee	-0.16956303
5	0x3d88deda	0.066831306
6	0x3dbad4ae	0.09122597
7	0xbe26be5f	-0.16283558
8	0x3e4a41ab	0.19751613
9	0x3d80b8bd	0.06285236
10	0xbe835f83	-0.25658807
11	0xbdcfcbc5	-0.10146288
12	0x3c01350f	0.007886185
13	0xbd1aa32d	-0.037753273
14	0xbdae60b4	-0.085145384
15	0xbeb450b3	-0.3521782
16	0xbde83135	-0.113375105
17	0xbe841a33	-0.25801238
18	0xbda85b83	-0.082205795
19	0xbeda2be1	-0.42611602
20	0x3d338875	0.043831307
21	0xbd435e01	-0.04769707
22	0xbda01dbb	-0.07818171
23	0x3c9882a6	0.018616986
24	0x3e3b1e68	0.18273318
25	0xbc3ed241	-0.011646808
26	0x3d8a3805	0.06748966
27	0x3e07fdd7	0.13280426
28	0xbe90f120	-0.28308964
29	0xbed7e08b	-0.421635
30	0xbf1bbc1f	-0.60833925
31	0x3e06d160	0.13165808
32	0xbe0c0bb9	-0.13676347
33	0x3e3b6684	0.18300825
34	0x3e3cc478	0.18434322
35	0xbea8a03c	-0.3293475
36	0xbe3acc68	-0.18242037
37	0xbd11cee5	-0.0355977
38	0x3df813df	0.12113165
39	0xbe11e607	-0.14247905
40	0x3dc42a09	0.0957833
41	0x3e404ea4	0.18779999
42	0xbdccf327	-0.10007315
43	0x3e211ffd	0.15734859
44	0xbe2152c5	-0.1575423
45	0x3e95f3a3	0.29287443
46	0xbdd6fd0b	-0.10497483
47	0xbe17f93f	-0.14841174
48	0xbdcfdb3a	-0.10149236
49	0x3e0e54d0	0.13899541
50	0xbdcf37e8	-0.10118085
51	0xbd1fd6a0	-0.03902304
52	0xbdb07e38	-0.08617824
53	0x3e662508	0.22475064
54	0xbddaa559	-0.10676069
55	0x3e892c90	0.2679181
56	0x3e219fe5	0.15783651
57	0x3e183501	0.1486397
58	0xbe6e6d3b	-0.23283856
59	0x3e815cb6	0.25266045
60	0xbe807c23	-0.2509471
61	0xbe805e85	-0.25072113
62	0xbeada5ff	-0.33915707
63	0x3ce8e0e6	0.028427552
64	0x3d91e703	0.0712414
65	0x3e65a7f2	0.22427347
66	0xbd6a97de	-0.057273738
67	0xbe7a6c02	-0.24455264
68	0x3e74bee7	0.23900948
69	0x3de1b143	0.11020138
70	0xbdf74e52	-0.12075485
71	0xbdc23df5	-0.094844736
72	0xbe0f9df3	-0.14025097
73	0xbe9b40e6	-0.3032295
74	0x3e182eaa	0.14861551
75	0xbe304c03	-0.17216496
76	0x3e1d2e70	0.15349746
77	0x3e25839f	0.1616349
78	0xbdbda424	-0.09259823
79	0x3e2e4edb	0.17022268
80	0x3e82cfba	0.25549108
81	0xbd30a701	-0.043128017
82	0xbf5e3d45	-0.8681224
83	0xbf22d8b2	-0.636119
84	0xbea701ca	-0.32618552
85	0x3d51e50f	0.051243838
86	0xbf0afe42	-0.54294217
87	0x3e2fee1a	0.17180672
88	0xbed43f91	-0.41454747
89	0xbf3fd8c8	-0.74940157
90	0x3db17997	0.086657695
91	0x3cebd95e	0.028790172
92	0x3d8da808	0.06916815
93	0xbdf2c58b	-0.118540846
94	0xbe098085	-0.13427933
95	0x3da7028c	0.08154783
96	0xbe3587bb	-0.17727558
97	0xbe81608c	-0.25268972
98	0xbe9dfa86	-0.30855197
99	0x3d1ec4b1	0.0387618
100	0x3e55a4a2	0.20863584
101	0x3d62c6ce	0.055365376
102	0xbdbd1c25	-0.09233884
103	0x3e1dd4ee	0.15413257
104	0xbea39050	-0.3194604
105	0xbb3ffb99	-0.002929425
106	0xbe5f325f	-0.21796559
107	0x3bd9acee	0.0066429293
108	0xbbbc7026	-0.005750674
109	0x3e6a4f4b	0.2288181
110	0x3d5ed250	0.05439979
111	0x3da3be85	0.07995323
112	0xbec6b7e7	-0.3881218
113	0x3e035cca	0.12828365
114	0xbe113edf	-0.1418414
115	0x3da96aec	0.08272347
116	0x3daa83ce	0.08325921
117	0xbe20b83d	-0.15695281
118	0x3e1be96d	0.15225764
119	0xbe8fed36	-0.28110665
120	0x3dee69ca	0.116412714
121	0x3d416878	0.04721877
122	0xbe6833a5	-0.22675951
123	0x3df32bee	0.11873613
124	0xbf42d091	-0.760995
125	0xbf0f4c15	-0.55975467
126	0xbda9615e	-0.082705244
127	0xbf4246aa	-0.75889075

fc2.weight f4 [64, 128]
0	0xbe022059	-0.12707652
1	0x3c8cc104	0.01718188
2	0xbf1bb6a8	-0.60825586
3	0x3e14ff05	0.14550407
4	0xbedf1c3a	-0.43576223
5	0x3d58cb9a	0.052928545
6	0x3de698fe	0.1125965
7	0x3de01dc9	0.10943181
8	0x3e69397a	0.22775832
9	0xbd92e8c1	-0.071733005
10	0xbdfe9ff2	-0.12432851
11	0xbd52cb22	-0.051463254
12	0x3dd28d50	0.102808595
13	0xbd89ac83	-0.06722357
14	0x3cc1054a	0.023562092
15	0xbe8a61f1	-0.27027848
16	0xbdaa4983	-0.083148025
17	0x3f14b7a4	0.58092713
18	0x399e6faf	0.0003021932
19	0xbd8358ab	-0.064133964
20	0xbbc5c76a	-0.006035735
21	0xbd3ede40	-0.046598673
22	0x3c07402b	0.008255045
23	0xbd5a1e22	-0.053251393
24	0xbb5d91cb	-0.0033808823
25	0xbe4b291f	-0.19839905
26	0x3da11d3b	0.078669034
27	0x3d493005	0.04911806
28	0xbe540120	-0.20703554
29	0xbd95ccfd	-0.07314489
30	0xbe9de094	-0.30835402
31	0x3d6049a4	0.05475773
32	0xbe061cd9	-0.13096942
33	0x3dd7be6a	0.105343655
34	0x3e36630a	0.17811218
35	0x3d375696	0.04476031
36	0xbd95ec31	-0.073204406
37	0x3d3af38a	0.045642413
38	0x3d317228	0.04332176
39	0x3e1e8e02	0.15483859
40	0x3de4c5a8	0.111705124
41	0xbc8a030c	-0.016847156
42	0x3e9cb7fa	0.30609113
43	0xbd0d1f13	-0.034453463
44	0xb91d66db	-0.00015011003
45	0x3c7f41ae	0.015579624
46	0xbc09fe6e	-0.008422477
47	0xbbd6f08a	-0.006559436
48	0x3dd36f6a	0.10323985
49	0x3d30a2cd	0.04312401
50	0x3cc67e6a	0.0242302
51	0x3e33f984	0.17575651
52	0xbdb01578	-0.08597845
53	0x3b990c0e	0.0046706265
54	0x3e403783	0.18771176
55	0x3cc50a4f	0.024052767
56	0x3db7e0f0	0.0897845
57	0x3e17ff79	0.14843549
58	0xbe0f85ec	-0.14015931
59	0xbd7792a0	-0.060442567
60	0x3e5c12c0	0.21491528
61	0xbe00cd7f	-0.1257839
62	0xbdc38275	-0.09546367
63	0x3c26db63	0.010184142
64	0x3e7b9822	0.24569753
65	0x3cdfcac5	0.027318368
66	0x3cb31a5f	0.02186316
67	0xbe40b92f	-0.18820642
68	0xbd9c4bba	-0.07631631
69	0xbdbb8553	-0.09156289
70	0xbcf9b8f5	-0.030483702
71	0x3dd0c126	0.1019309
72	0x3e027ff9	0.1274413
73	0x3f2167f1	0.63049227
74	0x3e37c414	0.17945892
75	0xbd73fe47	-0.05956867
76	0x3dcee81c	0.10102865
77	0x3d02560d	0.031820346
78	0x3ee5c2c2	0.4487515
79	0x3cb461d5	0.022019306
80	0xbc72542b	-0.014790575
81	0x3d8edb5c	0.06975433
82	0xbe1b1c6f	-0.15147565
83	0xbdf28a8a	-0.118428305
84	0xbf016019	-0.5053726
85	0x3da3da84	0.08000663
86	0xbe3a5056	-0.18194708
87	0x3e1a9c47	0.15098678
88	0xbee9b959	-0.45649222
89	0xbd120f62	-0.0356592
90	0x3dcb90b6	0.09939711
91	0x3e4bcdab	0.19902675
92	0x3e4e40d6	0.2014192
93	0xbd8398a7	-0.064256005
94	0xbdba590c	-0.090990156
95	0x3d0ff7ec	0.035148546
96	0x3e5e4ffc	0.21710199
97	0xbd675727	-0.0564796
98	0xbc9574fe	-0.018244263
99	0xbd1943b6	-0.03741809
100	0x3b96d5a4	0.0046031047
101	0x3e27af54	0.16375476
102	0xbd3f26be	-0.046667807
103	0x3e1d2d66	0.1534935
104	0xbe42eb3e	-0.1903505
105	0x3e36d6e2	0.17855409
106	0xbe4b7f25	-0.1987272
107	0xbd93e7db	-0.07221957
108	0x3c9d4122	0.019196097
109	0x3e10e907	0.14151393
110	0x3c202941	0.009775461
111	0xbd51be02	-0.051206596
112	0xbdc3781f	-0.09544396
113	0x3c911eaf	0.017714826
114	0x3d304fc8	0.043044835
115	0xbd0c1a37	-0.034204688
116	0x3e5384d7	0.20656143
117	0x3d4834d2	0.0488785
118	0x3ddb5109	0.107088156
119	0xbe6c267e	-0.23061559
120	0xbd32c1ea	-0.043641962
121	0x3dcfbfc9	0.10144002
122	0xbe5007a0	-0.20315409
123	0x3dc95682	0.09830953
124	0xbe0c9f2a	-0.13732591
125	0xbd91b80a	-0.07115181
126	0xbe30e3b3	-0.1727436
127	0xbdfcbb4e	-0.12340413
128	0xbdd6269c	-0.10456583
129	0xbc9ab4c7	-0.01888503
130	0xbeacedb3	-0.337751
131	0x3e4a9464	0.19783169
132	0xbd34259a	-0.043981172
133	0x3d231c3c	0.03982185
134	0xbd9ddddd	-0.07708333
135	0x3d65d307	0.056109454
136	0x3e0a27e4	0.1349178
137	0x3ca79116	0.020454925
138	0xbe03005b	-0.12793104
139	0xbe03cd2d	-0.12871237
140	0x3d5b16f9	0.053488705
141	0xbd3cdd8b	-0.046109717
142	0xbd36cb3f	-0.044627424
143	0x3c1eb369	0.009686329
144	0x3da9bd20	0.08288026
145	0x3eb8b615	0.36076418
146	0x3e005e40	0.12535954
147	0xbdda7c72	-0.10668267
148	0x3e06cc81	0.1316395
149	0xba029b5c	-0.0004982257
150	0x3d0ce5da	0.03439889
151	0x3e0c9b27	0.13731061
152	0x3ddbfaa6	0.10741167
153	0xbcd183a2	-0.025575463
154	0x3cfe8a3a	0.031071771
155	0xbe1e4a8c	-0.15458125
156	0xbd49fc05	-0.04931261
157	0xbe0c1ac7	-0.1368209
158	0xbe2a0790	-0.16604447
159	0x3e167d14	0.14696151
160	0xbe0623bd	-0.1309957
161	0xbd91b0ff	-0.071138375
162	0x3dbed44e	0.09317838
163	0x3e2301b7	0.15918623
164	0xbe219726	-0.15780315
165	0xbbebd234	-0.007196689
166	0x3d71c959	0.05902991
167	0x3d9ecabc	0.07753512
168	0x3e10dee9	0.14147533
169	0x3d3d0460	0.04614675
170	0x3e5b9059	0.21441783
171	0xbcb3a533	-0.021929359
172	0xbd209d67	-0.03921261
173	0xbd270198	-0.040773004
174	0x3d15ad0c	0.036541983
175	0xbc0e3630	-0.0086799115
176	0xbb1591fe	-0.0022822614
177	0x3da2277b	0.079176866
178	0x3a963230	0.0011459049
179	0x3e77dadd	0.24204583
180	0x3cf0eef1	0.029410811
181	0x3ccda715	0.025104085
182	0x3e6519a3	0.22373061
183	0x3db8af2e	0.09017788
184	0x3deb25b2	0.11481799
185	0x3df8f132	0.12155379
186	0xbd9b470e	-0.07581912
187	0xbd6bc552	-0.057561226
188	0x3e3481ce	0.17627642
189	0x3c1190b6	0.008884599
190	0xbe4b1b99	-0.19834746
191	0x3e09642e	0.13417122
192	0x3e6a1e33	0.22863083
193	0x3c0ec085	0.008712892
194	0x3d0e32b1	0.03471631
195	0xbddd0857	-0.10792606
196	0x3de4767f	0.11155414
197	0x3da059f4	0.07829657
198	0xbd9892f5	-0.07449905
199	0x3e05d007	0.13067637
200	0xbd3a3dae	-0.04546898
201	0x3eb99426	0.3624584
202	0x3d86f176	0.06589024
203	0xbd604da0	-0.05476153
204	0x3cc57669	0.024104314
205	0xbcea6759	-0.028613733
206	0x3e95a96c	0.2923082
207	0x3ceb1b16	0.028699439
208	0x3cae0de5	0.02124686
209	0x3d0ac2e7	0.03387728
210	0xbdc5e5bb	-0.09662958
211	0xbd2df2ed	-0.042468
212	0xbdd52ee0	-0.10409331
213	0x3ce00f65	0.02735109
214	0xbe3b3861	-0.18283226
215	0x3dbbbede	0.091672644
216	0xbdfdfdd5	-0.1240193
217	0x3de8c80c	0.11366281
218	0x3d54a588	0.051915675
219	0x3da011ca	0.07815893
220	0xbd56eae9	-0.05247012
221	0x3d806cba	0.06270738
222	0xbdf223b8	-0.11823219
223	0x3ccacd8c	0.024756216
224	0x3e3cc7e1	0.18435623
225	0x3b7cd6ea	0.0038580247
226	0x3d1bf523	0.038075577
227	0x3dbef204	0.093235046
228	0x3c4708a9	0.012148061
229	0xbc4664e8	-0.012109019
230	0x3b9111cf	0.004427172
231	0x3ddf4410	0.10901654
232	0xbcd60f87	-0.02613045
233	0x3e130594	0.14357597
234	0xbe2d82f0	-0.1694448
235	0x3de5f688	0.11228663
236	0xbd5a9e3d	-0.053373564
237	0x3df69db2	0.12041797
238	0x3d827655	0.06370226
239	0xbda0e9fe	-0.078571305
240	0x3cf5077a	0.029910792
241	0xbab1114d	-0.0013509184
242	0xbdfbd530	-0.12296522
243	0xbd74cf81	-0.059768204
244	0x3cdd0535	0.026980022
245	0x3d05fa61	0.032709483
246	0xbdb4b82a	-0.08824189
247	0xbdebddef	-0.1151694
248	0xbde59e89	-0.11211879
249	0x3dbaf0ec	0.091279835
250	0xbcbb32da	-0.022851396
251	0xbc5e3137	-0.013561538
252	0xbdea7a5c	-0.114491194
253	0xbce6b476	-0.028162222
254	0xbe2020dd	-0.15637536
255	0x3d21aef5	0.039473493

fc2.bias f4 [64]
0	0x3dbeeaf5	0.09322158
1	0x3d10f4e4	0.035389796
2	0x3e9edf83	0.310299
3	0x3ec83b02	0.3910752
4	0x3e83fd9d	0.2577943
5	0x3e81d88e	0.2536053
6	0x3e2f0c77	0.17094599
7	0xbda0b170	-0.078463435
8	0x3dc673e7	0.09690075
9	0x3d4f495f	0.05060708
10	0x3da10f0d	0.07864199
11	0xbe0a9b76	-0.13535866
12	0x3e7530c0	0.23944378
13	0x3da76590	0.081736684
14	0x3ee8101f	0.453248
15	0xbe10f3ca	-0.14155498
16	0x3e10d611	0.1414416
17	0x3ebb3ecb	0.36571345
18	0x3cd2c8a6	0.025730442
19	0x3e15a306	0.1461297
20	0x3d46edfd	0.048566807
21	0x3e5f02c2	0.21778396
22	0x3dfdc488	0.12391001
23	0x3dce49a1	0.10072637
24	0x3e8b6e52	0.27232605
25	0xbdf9b875	-0.121933855
26	0x3d9b2a52	0.07576431
27	0x3e1d247c	0.15345949
28	0x3da7e567	0.08198052
29	0x3e18c55b	0.14919035
30	0x3e0574df	0.13032864
31	0x3e19a773	0.15005283
32	0x3d827116	0.06369226
33	0x3e6e0a61	0.23246147
34	0x3e669886	0.2251912
35	0x3e0b89a2	0.13626722
36	0x3e31087a	0.1728839
37	0xbd8825e4	-0.06647852
38	0x3d51d3a1	0.051227216
39	0x3d6e85da	0.05823312
40	0x3dd899b8	0.105761945
41	0x3d3484cb	0.044071954
42	0x3e629ff2	0.22131327
43	0x3e46ee60	0.1942687
44	0x3c0531dc	0.008129563
45	0x3e6e311e	0.23260924
46	0x3e787266	0.2426239
47	0x3d605e69	0.054777537
48	0x3dc2c8b8	0.0951094
49	0x3d22856d	0.039678026
50	0x3e22b006	0.1588746
51	0x3e93f6ec	0.28899324
52	0x3de755f4	0.11295691
53	0x3d927c88	0.07152659
54	0x3e3f987c	0.18710512
55	0x3d8b7b91	0.06810678
56	0x3ced7bbe	0.028989669
57	0x3dc8a084	0.09796241
58	0x3e16489b	0.14676134
59	0x3d9a3176	0.07528965
60	0x3e816580	0.2527275
61	0x3e6bb4bd	0.23018165
62	0x3e0d6696	0.13808665
63	0x3e25943c	0.16169828

fc3.weight f4 [1, 64]
0	0xbede68b8	-0.4343927
1	0xbe736a93	-0.23771124
2	0x3eff84b2	0.49905926
3	0x3ed4c4eb	0.41556486
4	0x3e8e73ca	0.27822715
5	0x3f337bbb	0.7011067
6	0xbe904ce5	-0.28183666
7	0x3d889603	0.066692375
8	0x3e822b6c	0.25423753
9	0xbed2c080	-0.4116249
10	0x3e8ebacb	0.27876887
11	0x3e4bfdb5	0.19921
12	0x3e986196	0.29761952
13	0xbf100b59	-0.56267315
14	0x3f30e1cf	0.69094557
15	0xbe1947e9	-0.14968838
16	0xbed29218	-0.41127086
17	0x3e814df3	0.25254783
18	0xbe5287cc	-0.20559615
19	0xbecdbc41	-0.4018269
20	0xbe89ac52	-0.26889282
21	0x3e77f906	0.24216089
22	0x3e34bc2f	0.17649911
23	0xbee0a125	-0.43872944
24	0x3e6a80d8	0.22900712
25	0x3e66bd9d	0.22533269
26	0xbee28579	-0.44242457
27	0xbe95076a	-0.2910722
28	0xbea23da0	-0.3168764
29	0xbf0fab45	-0.5612071
30	0x3e9a4edf	0.301383
31	0xbf0ac12c	-0.54201007
32	0xbe9d66d8	-0.30742526
33	0x3e861842	0.26190382
34	0x3ed6639a	0.41872865
35	0xbeec8def	-0.46202037
36	0x3e980b3d	0.29696074
37	0xbe004eea	-0.12530103
38	0x3f0bec09	0.54657036
39	0xbea1c7c9	-0.31597736
40	0xbefe176d	-0.49627247
41	0xbe802b2f	-0.25032946
42	0x3eb08970	0.34479856
43	0x3ef82c3f	0.48471257
44	0xbe545d86	-0.20738801
45	0x3e8bb728	0.27288175
46	0x3eb457ae	0.35223144
47	0x3e89d513	0.26920375
48	0x3f07019d	0.52736837
49	0x3e4cc421	0.19996692
50	0x3e491ad8	0.19639146
51	0x3ebe24b2	0.3713737
52	0x3e5281c2	0.20557311
53	0xbe9a6c39	-0.30160692
54	0x3e941d50	0.28928614
55	0x3e2eacf8	0.1705817
56	0x3e9bda4d	0.30439988
57	0x3eccc483	0.39993677
58	0xbe955649	-0.29167393
59	0xbeae7f15	-0.3408133
60	0x3e87d21e	0.26527494
61	0x3e72bd5e	0.2370505
62	0xbe96089e	-0.2930345
63	0xbed4757d	-0.41495886
