models/mlp_pytorch_augmented_cv.pth (torch, 47393 bytes, 5 tensors)

fc1.weight f4 [128, 20]
-0.19081151 0.079861246 0.21602282 0.18087631 0.035509 0.19180577 0.036605783 0.1009782
-0.18601869 -0.09743503 -1.2110305 -0.6555 -0.24208674 0.18128526 0.2749981 0.07085504
-0.07018527 0.0015715805 -0.06426735 -0.0095935175 0.450189 0.034500554 -0.31197214 -0.62153524
-0.6926009 -0.050253894 -0.0036739914 -0.08296328 0.15793133 0.30195725 -0.18997379 -0.009722367
0.16323364 -0.19820258 -0.5863115 -0.2471979 0.0179481 0.027878758 0.018625988 -0.06498231
-0.39133713 0.046002954 0.14488117 0.064053774 0.14245647 0.21143027 0.033306874 -0.0030401892
-0.10189447 -0.013522402 -0.08923146 0.054483946 0.17019181 0.2138026 0.28800938 -0.31047317
0.004726974 0.23765785 -0.27182457 0.0050092163 -0.49102208 -0.22431158 0.020369204 0.23072001
-0.010700881 0.064076915 -0.107744664 -0.30988452 0.31548354 0.038682617 0.21292096 0.19650932
0.053888574 0.0145871 0.16711025 0.31886294 -0.07427396 0.20690167 -0.15896006 0.013467628
0.14934656 -0.120055914 0.23430236 -0.14750144 0.22496863 -0.0915557 0.08412173 -0.14874464
0.3337975 -0.21517172 -0.019279426 -0.46130794 0.029028563 -0.0051706256 0.105480716 0.013242024
0.03398935 0.05760235 -0.12691265 -0.0021073653 0.16642335 0.08681401 -0.04634557 0.23378912
0.14312083 0.18936004 0.04154578 -0.1745135 0.026758362 0.13629991 0.3273159 0.008260945
0.20622747 -0.06002309 0.03204942 0.24399433 -0.15728359 0.036953725 0.21779881 0.095567696
-0.3793838 -0.10212296 0.18813814 0.21177377 0.17506465 0.13919482 -0.26986066 0.13338922
0.046721634 0.080186725 -1.0371939 0.13908184 -0.14065161 0.03994032 0.5333565 0.09714956
-0.03885755 0.01838302 -0.12379487 -0.44340736 -0.5439771 -0.013909021 0.29281506 -0.071709774
0.21288268 -0.25646576 0.014748575 -0.23047563 0.10636379 -0.13870794 -0.026975464 -0.092760496
0.05849361 -0.00037326408 0.29187426 -0.36053297 -0.37355876 0.24170628 0.15426238 0.06631201
0.115493216 -0.009664058 -3.343964e-05 -0.111759484 -0.14272435 -0.34139955 0.054018646 0.15438835
-0.022313006 0.066567264 0.10466105 -0.012214871 0.009394413 0.080652386 -0.2674182 -0.15696856
-0.3283261 0.39399824 -0.15856458 -0.71685714 0.40633357 -0.022143241 0.21341033 0.19084914
-0.17417352 0.17636065 0.02084422 -0.42634946 0.055803698 0.18241984 0.056465212 0.18921663
0.020156737 0.036213357 0.0034046746 0.13722914 -0.18740751 0.3431991 0.056932557 -0.012580883
-0.06252255 -0.06418538 0.1188858 -0.05390358 -0.17728971 -0.014751415 -0.21888606 0.032601554
0.27185112 -0.08877881 -0.76262635 0.012923249 -0.07858578 -0.20528293 -0.037671134 0.45619184
-0.028566588 0.07660414 -0.024338072 0.005196486 0.12286299 0.02753363 0.10804827 0.2782135
0.28918123 0.19886798 0.16492729 0.11556002 0.011746386 0.38984963 0.19555096 0.040089734
0.2003655 0.0022938827 0.0541742 0.20225222 -0.02735847 0.11559389 0.29380104 0.07553857
0.37203985 0.056999158 0.13171382 -0.8908426 -0.9094839 -0.601556 0.049168665 -0.00927425
0.12960783 0.14860728 0.08528063 -0.0050882436 0.17963473 0.13110965 -0.30576625 -0.01770552
00000000: 1864 43be 4b8e a33d 1635 5d3e a437 393e
00000010: e371 113d bb68 443e f2ef 153d a9cd ce3d
00000020: af7b 3ebe 048c c7bd 0c03 9bbf d9ce 27bf
00000030: 96e5 77be d8a2 393e 8dcc 8c3e 721c 913d
00000040: 4bbd 8fbd 7efd cd3a 9a9e 83bd 212e 1dbc
00000050: 2c7f e63e 7450 0d3d d0ba 9fbe ef1c 1fbf
00000060: 4b4e 31bf 07d7 4dbd 59c7 70bb a7e8 a9bd
00000070: c0b8 213e 249a 9a3e 7d88 42be 904a 1fbc
00000080: b826 273e 9ef5 4abe 8318 16bf 7221 7dbe
00000090: e507 933c fe61 e43c 8795 983c 7215 85bd
000000a0: 575d c8be 986d 3c3d bb5b 143e a02e 833d
000000b0: 1ce0 113e 2d81 583e ca6c 083d e93d 47bb
000000c0: 0cae d0bd 118d 5dbc fcbe b6bd 8f2a 5f3d
000000d0: c346 2e3e 12ef 5a3e f775 933e 57f6 9ebe
000000e0: bbe4 9a3b 945c 733e 972c 8bbe 5a24 a43b
000000f0: 3f67 fbbe efb1 65be 51dd a63c de41 6c3e
00000100: bf52 2fbc c23a 833d 3ca9 dcbd 2fa9 9ebe
00000110: 0f87 a13e aa71 1e3d f407 5a3e bd39 493e
00000120: 44ba 5c3d bbfe 6e3c f31e 2b3e 0142 a33e
00000130: f21c 98bd 08de 533e 6dc6 22be 53a7 5c3c
00000140: 4eee 183e e0df f5bd f5ec 6f3e 9e0a 17be
00000150: 2d5e 663e 8e81 bbbd 0348 ac3d 8450 18be
00000160: 82e7 aa3e fa55 5cbe e3ef 9dbc 8e30 ecbe
00000170: 4fcd ed3c 5a6e a9bb 4606 d83d 13f5 583c
00000180: 6b38 0b3d 71f0 6b3d 64f5 01be b91b 0abb
00000190: e26a 2a3e 8bcb b13d dad4 3dbd 6a66 6f3e
000001a0: 448e 123e 99e7 413e e82b 2a3d abb3 32be
000001b0: 5a34 db3c 3492 0b3e f395 a73e ea58 073c
000001c0: 4b2d 533e c6da 75bd 4146 033d a6d9 793e
000001d0: f30e 21be ca5c 173d a706 5f3e ffb8 c33d
000001e0: 983e c2be d825 d1bd 49a7 403e 39db 583e
000001f0: 2644 333e 1689 0e3e 2d2b 8abe 2f97 083e
00000200: 2f5f 3f3d f038 a43d c5c2 84bf 786b 0e3e
00000210: fa06 10be 7698 233d 0d8a 083f 59f6 c63d
00000220: 1829 1fbd fd97 963c 2a88 fdbd 4a06 e3be
00000230: 1542 0bbf aae2 63bc dbeb 953e 93dc 92bd
00000240: ebfd 593e 7b4f 83be 02a4 713c ce01 6cbe
00000250: 42d5 d93d 7409 0ebe a6fb dcbc 37f9 bdbd
00000260: ff96 6f3d a8b2 c3b9 8b70 953e c797 b8be
00000270: 1843 bfbe da81 773e f5f6 1d3e 97ce 873d
00000280: b587 ec3d ff55 1ebc 8a41 0cb8 28e2 e4bd
00000290: 5526 12be eccb aebe a842 5d3d fb17 1e3e
000002a0: c4c9 b6bc 6b54 883d 8858 d63d e220 48bc
000002b0: 06eb 193c 142d a53d 0aeb 88be 5ebc 20be
000002c0: 5c1a a8be 23ba c93e c15e 22be f383 37bf
000002d0: f40a d03e be65 b5bc 3d88 5a3e f56d 433e
000002e0: 8b5a 32be e397 343e 7fc1 aa3c 7a4a dabe
000002f0: 6b92 643d 44cc 3a3e 1148 673d 01c2 413e
00000300: be1f a53c 7554 143d f620 5f3b cc85 0c3e
00000310: c1e7 3fbe cbb7 af3e 1d32 693d 0c20 4ebc
00000320: d30b 80bd a073 83bd 667a f33d 00ca 5cbd
00000330: 6f8b 35be ebaf 71bc ab23 60be 3589 053d
00000340: 1230 8b3e aad1 b5bd 7b3b 43bf 09bc 533c
00000350: 95f1 a0bd b035 52be 0c4d 1abd fa91 e93e
00000360: 7a04 eabc a2e2 9c3d a360 c7bc 4947 aa3b
00000370: 979f fb3d 358e e13c 6948 dd3d 0072 8e3e
00000380: 900f 943e 0ca4 4b3e b3e2 283e bbaa ec3d
00000390: ea73 403c 5f9a c73e 833e 483e 2235 243d
000003a0: 9d2c 4d3e f754 163b c4e5 5d3d 351b 4f3e
000003b0: df1e e0bc 7dbc ec3d 176d 963e f7b3 9a3d
000003c0: 027c be3e f377 693d fddf 063e 430e 64bf
000003d0: f0d3 68bf 93ff 19bf 1565 493d 06f3 17bc
000003e0: eab7 043e 822c 183e 9ca7 ae3d 48bb a6bb
000003f0: 2bf2 373e 9c41 063e 658d 9cbe 2b0b 91bc

fc1.bias f4 [128]
-0.12865284 -0.36828783 -0.020066783 -0.04113084 0.04164249 -0.5972117 -0.17247388 -0.16844909
-0.24866231 -0.08486988 0.08072086 -0.8894301 -0.06067941 -0.32971805 -0.063909784 -0.16359985
-0.22229505 -0.13883619 0.086046666 -0.2792156 -0.0006895746 -0.10346691 -0.049093857 -0.18943177
-0.049754098 0.15044701 -0.669471 -0.1526981 -0.58135015 -0.19911541 -0.020810602 0.0046887523
-0.10129815 -0.09182268 -0.36389613 -0.056408077 -0.27337986 0.058956 -0.32076162 0.013732142
-0.08664458 0.10978682 -0.15192658 0.050569214 -0.006224063 0.103862174 -0.15063477 0.072504446
-0.19582956 -0.11706428 -0.058918394 0.020199811 0.09710947 -0.10269085 -0.47640216 -0.5911472
-0.19249974 0.04392144 0.06456782 0.105328694 -0.6956256 0.12318498 -0.10396927 0.011991478
-0.49149317 -0.049310297 -0.18705043 -0.31641355 0.115118235 -0.36530668 -0.36798152 -0.1027072
-0.08228928 0.054642018 -0.09231674 -0.77575785 -0.37842306 -0.13027973 -0.045065794 -0.28194937
0.11344525 0.023748405 -0.20986325 -0.5482702 -0.35855716 -0.1690889 -0.32857716 -0.09039012
-0.32811278 -0.06850305 -0.34476504 -0.09758809 -0.1816936 -0.39951587 0.06799574 0.17408678
-0.47705594 -0.118252575 -0.1789739 -0.2522093 -0.16285862 -0.59820133 -0.22828239 -0.024085501
-0.3041523 -0.05061837 -1.1336178 0.14097409 -0.011228593 -0.98641896 -0.22609219 -0.16541283
-0.0900075 -0.34202567 -0.5087597 0.034734678 -0.6677234 -0.5838427 -0.35897037 -0.29650223
0.0016640956 -0.24058124 0.12896082 -0.24277844 -0.7563453 -0.58361036 -0.02853478 -0.36954737
00000000: 92bd 03be 3990 bcbe 1863 a4bc d078 28bd
00000010: 5191 2a3d dee2 18bf fe9c 30be eb7d 2cbe
00000020: 55a1 7ebe 42d0 adbd fa50 a53d b1b1 63bf
00000030: f98a 78bd ced0 a8be 22e3 82bd b886 27be
00000040: 50a1 63be 132b 0ebe 3c39 b03d 59f5 8ebe
00000050: 91c4 34ba 76e6 d3bd a416 49bd 67fa 41be
00000060: f4ca 4bbd c80e 1a3e 7462 2bbf e45c 1cbe
00000070: 5dd3 14bf e9e4 4bbe ff7a aabc 1ba4 993b
00000080: 6875 cfbd 870d bcbd 9850 babe 280c 67bd
00000090: 72f8 8bbe d97b 713d de3a a4be c7fc 603c
000000a0: b772 b1bd ead7 e03d a492 1bbe aa21 4f3d
000000b0: 3af3 cbbb b1b5 d43d 0040 1abe 367d 943d
000000c0: 8b87 48be 66bf efbd 6a54 71bd 137a a53c
000000d0: 54e1 c63d 954f d2bd fcea f3be 6c55 17bf
000000e0: a71e 45be f8e6 333d 223c 843d 92b6 d73d
000000f0: 8514 32bf 6848 fc3d d7ed d4bd e777 443c
00000100: fea4 fbbe 98f9 49bd 268a 3fbe f500 a2be
00000110: 1cc3 eb3d 7a09 bbbe 1368 bcbe 2758 d2bd
00000120: 4887 a8bd 4fd0 5f3d 8f10 bdbd 1198 46bf
00000130: abc0 c1be 0d68 05be e996 38bd ab5b 90be
00000140: fc55 e83d 048c c23c 64e6 56be 705b 0cbf
00000150: ce94 b7be a425 2dbe 443b a8be 751e b9bd
00000160: 66fe a7be 544b 8cbd 0b85 b0be 44dc c7bd
00000170: e30d 3abe 588d ccbe 5a41 8b3d ce43 323e
00000180: ad40 f4be 682e f2bd ef44 37be 9421 81be
00000190: 69c4 26be b923 19bf dcc2 69be f54e c5bc
000001a0: dab9 9bbe 3555 4fbd 631a 91bf 835b 103e
000001b0: 22f8 37bc f485 7cbf b684 67be fb61 29be
000001c0: da55 b8bd fd1d afbe 133e 02bf f345 0e3d
000001d0: ecef 2abf b776 15bf f7ca b7be 24cf 97be
000001e0: c81d da3a ee5a 76be 4e0e 043e e99a 78be
000001f0: d89f 41bf 7d67 15bf c5c1 e9bc 5035 bdbe

fc2.weight f4 [64, 128]
-0.15598659 -0.42676687 -0.07823368 -0.077529944 0.12738483 0.004549289 -0.098686 0.074501894
0.0155045 0.06525869 0.035544474 0.07631609 -0.113717265 -0.0016188567 -0.061601017 -0.05645265
0.056783088 -0.29429626 0.110127956 -0.17184801 0.011147549 -0.06452866 -0.02796234 -0.06037257
0.09670069 0.07222067 0.029719943 0.058753848 -0.11622569 0.19703723 0.041001294 -0.03814902
-0.05718017 0.12275551 -0.049255684 -0.036060035 0.047117155 -0.31159917 -0.05732119 -0.24134122
-0.09351415 -0.055460826 -0.027316611 0.10908928 0.23278941 -0.14323065 -0.194786 -0.0007519241
0.20299982 -0.25975466 0.108573526 -0.11343056 -0.0466652 -0.027865725 0.08996777 -0.06113207
0.14632317 0.014394581 -0.08753699 -0.035758764 0.22010772 0.0069926293 0.016661102 -0.01618819
-0.05907272 -0.15877277 -0.042725533 0.050106846 -0.006455658 -0.087729864 -0.30026764 0.011419355
0.052783992 0.01778245 0.18858622 0.1436477 0.12767234 -0.019363644 0.015296513 -0.058264956
0.1264415 -0.06917666 -0.05872851 -0.1520795 0.063382015 -0.08158152 0.2995411 -0.07960826
-0.13214263 0.24007992 -0.07656914 -0.018198444 -0.10734548 -0.06818622 0.010314752 0.22248614
0.10859309 0.06669416 -0.025351092 0.07006695 -0.17280671 0.23494945 0.35400426 -0.14789468
0.046637066 -0.030984417 0.021191726 0.009921044 -0.09843457 -0.055001397 0.16532151 0.08413664
-0.2323245 -0.0462067 0.11331344 0.017575344 0.01575693 -0.12412229 -0.025106952 -0.23279539
0.043508384 -4.232995e-05 -0.10204377 -0.55699086 -0.22147349 0.07129412 -0.031273045 -0.07838976
0.0015862598 -0.5310102 -0.08320651 0.10913139 0.11476991 -0.19891348 -0.0308347 0.1938763
0.008533524 0.06929159 0.12983525 -0.24784404 -0.06833378 0.05549491 0.011429928 0.088454925
0.028942728 -0.45330554 0.089563735 -0.46501034 0.04684003 0.07701121 -0.04590457 -0.15044086
-0.036369354 0.037399877 0.12991242 0.02456423 -0.14739807 0.09194624 0.042264223 -0.05996886
-0.11635813 0.18566136 0.085330285 0.10982248 -0.0011778501 -0.14746694 -0.038901184 -0.23865606
-0.09529221 0.01951305 -0.14408223 0.08987315 0.14744943 -0.11329933 -0.22298233 -0.071313195
0.4062467 -0.11205448 -0.025335053 -0.27577642 -0.12006233 0.17181173 0.16053106 -0.23087887
0.04531837 0.014866242 -0.12102554 0.062146552 -0.15074866 0.061284162 -0.17098892 0.04234246
-0.00028017527 -0.16512915 0.086908355 0.31136483 0.09627502 -0.34794715 -0.46098748 0.1756198
-0.0800135 -0.11204385 -0.14299849 -0.1564065 0.41151723 0.123169705 -0.12210053 0.03508801
-0.022471737 -0.0008584212 0.01787234 -0.26125145 0.13705987 -0.110236526 0.22612797 -0.039685376
-0.3866365 0.1765095 0.18609506 0.2250446 0.05958792 0.25176588 0.14015289 0.1043508
0.10377886 0.042197507 -0.035809584 0.07235925 -0.05213771 0.07861017 0.53323543 -0.10081937
0.1435735 -0.1143952 -0.06666892 -0.0685483 0.06754812 -0.17568927 0.2741652 0.17645998
-0.2191806 0.12644602 0.40658903 -0.040681247 -0.2250181 -0.008841133 -0.25990492 0.121997446
-0.074394 0.13288438 0.1149553 -0.30956826 -0.024643753 0.05616018 0.14727588 0.26039916
00000000: f3ba 1fbe 3081 dabe fb38 a0bd 05c8 9ebd
00000010: 2b71 023e 3412 953b e31b cabd 7394 983d
00000020: 9606 7e3c 59a6 853d 1597 113d 9c4b 9c3d
00000030: 99e4 e8bd d12f d4ba 5951 7cbd e53a 67bd
00000040: 6295 683d 00ae 96be c48a e13d edf8 2fbe
00000050: 36a4 363c 9a27 84bd 4711 e5bc 3a49 77bd
00000060: 030b c63d 6ee8 933d 3d77 f33c e0a7 703d
00000070: bc07 eebd 21c4 493e f9f0 273d 2642 1cbd
00000080: c135 6abd 3e67 fb3d 54c0 49bd b0b3 13bd
00000090: ebfd 403d ed89 9fbe a0c9 6abd 2722 77be
000000a0: 5984 bfbd e42a 63bd 16c7 dfbc 336a df3d
000000b0: 5960 6e3e 0eab 12be fb75 47be c61c 45ba
000000c0: 2fdf 4f3e 90fe 84be cc5b de3d 484e e8bd
000000d0: 0224 3fbd a946 e4bc 0641 b83d 9f65 7abd
000000e0: bed5 153e 40d7 6b3c 9846 b3bd c877 12bd
000000f0: eb63 613e 6d22 e53b dd7c 883c 189d 84bc
00000100: 3df6 71bd 5495 22be f800 2fbd d63c 4d3d
00000110: fc89 d3bb b7ab b3bd aebc 99be 3f18 3b3c
00000120: 0734 583d 80ac 913c bf1c 413e 6218 133e
00000130: 8abc 023e 81a0 9ebc 3a9e 7a3c 3ca7 6ebd
00000140: e179 013e 7eac 8dbd 4e8d 70bd baba 1bbe
00000150: 6ece 813d 3614 a7bd 735d 993e a809 a3bd
00000160: 6650 07be 83d7 753e 48d0 9cbd e714 95bc
00000170: f2d7 dbbd 38a5 8bbd 35ff 283c 68d3 633e
00000180: 0e66 de3d f396 883d 18ad cfbc 437f 8f3d
00000190: 3ef4 30be 9796 703e 0c40 b53e b471 17be
000001a0: 8206 3f3d 08d3 fdbc 459a ad3c e08b 223c
000001b0: 1098 c9bd 2549 61bd 0b4a 293e d54f ac3d
000001c0: 79e6 6dbe 3d43 3dbd e010 e83d 2bfa 8f3c
000001d0: ad14 813c d433 febd 18ad cdbc ea61 6ebe
000001e0: d935 323d 708b 31b8 53fc d0bd f496 0ebf
000001f0: f2c9 62be a702 923d 2a18 00bd cf8a a0bd
00000200: 0cea cf3a 49f0 07bf 2d68 aabd 4780 df3d
00000210: 7d0c eb3d faaf 4bbe 0e99 fcbc 8287 463e
00000220: 32d0 0b3c c0e8 8d3d 88f3 043e d4ca 7dbe
00000230: 95f2 8bbd a14e 633d 9844 3b3c db27 b53d
00000240: 4d19 ed3c aa17 e8be 316d b73d d615 eebe
00000250: 55db 3f3d 0eb8 9d3d 6e06 3cbd 2b0d 1abe
00000260: 08f8 14bd 9d30 193d c307 053e ed3a c93c
00000270: 85ef 16be 4f4e bc3d 401d 2d3d e8a1 75bd
00000280: 2c4d eebd 031e 3e3e a5c1 ae3d 9cea e03d
00000290: 1762 9aba 9301 17be d956 1fbd 4162 74be
000002a0: 9028 c3bd d5d9 9f3c 4b8a 13be 6a0f b83d
000002b0: fcfc 163e 7b09 e8bd 7b55 64be a70c 92bd
000002c0: 91ff cf3e d27c e5bd 758b cfbc 9132 8dbe
000002d0: 3de3 f5bd 6aef 2f3e 4162 243e 836b 6cbe
000002e0: c19f 393d 8a91 733c 3ddc f7bd 628d 7e3d
000002f0: db5d 1abe 1a05 7b3d b817 2fbe 4a6f 2d3d
00000300: 7de4 92b9 9e17 29be 02fd b13d 366b 9f3e
00000310: d62b c53d 2126 b2be 8d06 ecbe add5 333e
00000320: 1ede a3bd 3f77 e5bd 326e 12be 0729 20be
00000330: 63b2 d23e 6640 fc3d d80f fabd 72b8 0f3d
00000340: a616 b8bc ac07 61ba 0369 923c c0c2 85be
00000350: 6c59 0c3e b0c3 e1bd 178e 673e 228d 22bd
00000360: 38f5 c5be e8be 343e b48f 3e3e 1772 663e
00000370: 7612 743d 75e7 803e 3d84 0f3e dfb5 d53d
00000380: 038a d43d 4bd7 2c3d 12ad 12bd 1631 943d
00000390: 5a8e 55bd 5efe a03d 1e82 083f 637a cebd
000003a0: ee04 133e 0848 eabd b789 88bd 0d63 8cbd
000003b0: ab56 8a3d e3e7 33be 625f 8c3e edb1 343e
000003c0: e170 60be 117b 013e 702c d03e 61a1 26bd
000003d0: 256b 66be 66da 10bc 4212 85be ccd9 f93d
000003e0: e25b 98bd d812 083e af6d eb3d bb7f 9ebe
000003f0: b2e1 c9bc 3808 663d 7dcf 163e 0a53 853e

fc2.bias f4 [64]
0.13218814 0.10540184 0.10464906 0.10497118 0.21205926 0.13145174 0.2667301 0.1947322
0.23418872 0.162046 0.13757859 0.15249524 0.093919605 0.16759464 0.12749122 0.14772029
0.15548588 0.06388395 0.10911974 0.23011252 0.26683417 0.020219607 0.20871194 0.16856802
0.20572163 0.15086126 0.03745558 0.22105119 0.1881397 0.2157621 0.15304825 0.012091924
0.16531415 0.14847748 0.2677897 0.037637345 0.25200084 0.23752315 -0.034839533 0.21129097
0.1331509 -0.03185005 0.22035903 0.20539968 0.20442617 0.239617 0.24404304 0.15047733
0.20006654 0.13428977 0.19642068 0.15191893 0.1325363 0.16925457 0.12954555 0.14009674
0.029343037 0.16845608 0.22977176 0.20154496 0.0024738607 -0.021814061 -0.0014761898 0.16539577
00000000: 545c 073e ebdc d73d 3f52 d63d 21fb d63d
00000010: 1026 593e 499b 063e d990 883e e167 473e
00000020: 2bcf 6f3e 63ef 253e 67e1 0c3e b627 1c3e
00000030: ec58 c03d ee9d 2b3e 0f8d 023e fd43 173e
00000040: b137 1f3e 97d5 823d 2c7a df3d 9ea2 6b3e
00000050: 7d9e 883e 97a3 a53c 95b8 553e 189d 2c3e
00000060: b1a8 523e 607b 1a3e 066b 193d 3e5b 623e
00000070: b2a7 403e bdf0 5c3e aeb8 1c3e 351d 463c
00000080: 1d48 293e 7b0a 183e bb1b 893e 9e29 1a3d
00000090: 4106 813e 4539 733e e6b3 0ebd a95c 583e
000000a0: b658 083e 3375 02bd cca5 613e 4b54 523e
000000b0: 1855 513e 295e 753e 6be6 793e bb16 1a3e
000000c0: 3ede 4c3e 4283 093e 8122 493e a390 1b3e
000000d0: 99b7 073e 1251 2d3e 97a7 043e 8575 0f3e
000000e0: cf60 f03c c07f 2c3e 4a49 6b3e cd61 4e3e
000000f0: 7f20 223b 67b3 b2bc b67c c1ba 825d 293e

fc3.weight f4 [1, 64]
0.30137742 0.33154503 0.37395796 0.3738586 -0.7564092 -0.6792516 0.73545706 -0.9345097
-0.75367826 -0.83463395 0.31313702 -0.4880318 -0.6064222 -0.7890336 0.30490252 0.33758783
0.56176 -0.38356483 0.3061519 0.3326158 -0.5805322 0.10180655 -0.5287974 -0.61898905
-0.6950279 0.64555347 0.18558207 0.6573618 -0.75620264 -0.85773534 0.58930516 0.16324289
-0.68777907 -0.7985472 0.6354781 0.2971699 0.62558496 0.6001479 0.263617 0.7071872
0.32306746 0.041358538 -0.8176135 -0.78110576 -0.69632405 0.67975575 0.75150734 0.46772993
-0.77371764 -0.5996499 0.17802136 0.25033134 -0.60479766 -0.694522 -0.49138036 -0.76542276
0.2629958 0.56890845 0.8218743 -0.6726448 0.19189465 0.3701835 0.3550017 -0.57101965
00000000: 244e 9a3e 45c0 a93e 6b77 bf3e 656a bf3e
00000010: 09a4 41bf 6fe3 2dbf ea46 3c3f 073c 6fbf
00000020: 0ff1 40bf 92aa 55bf 7f53 a03e 4edf f9be
00000030: 7c3e 1bbf 1bfe 49bf 2f1c 9c3e 50d8 ac3e
00000040: 81cf 0f3f 9c62 c4be f1bf 9c3e 9e4c aa3e
00000050: c29d 14bf f47f d03d 445f 07bf 1176 1ebf
00000060: 59ed 31bf fe42 253f 3a09 3e3e dd48 283f
00000070: 7f96 41bf 8b94 5bbf b4dc 163f 2529 273e
00000080: 4a12 30bf 976d 4cbf b1ae 223f a726 983e
00000090: 5626 203f 4ba3 193f cff8 863e 380a 353f
000000a0: 1969 a53e 9267 293d 1e4f 51bf 8cf6 47bf
000000b0: 4b42 32bf 7904 2e3f c962 403f 4c7a ef3e
000000c0: 5c12 46bf a882 19bf 3b4b 363e 6e2b 803e
000000d0: 05d4 1abf 32cc 31bf 3596 fbbe bff2 43bf
000000e0: 63a7 863e fca3 113f 5b66 523f 7332 2cbf
000000f0: 0880 443e b188 bd3e c8c2 b53e 582e 12bf
